Fruit_quality.tflite (tflite, 741912 bytes, 16 tensors)

sequential_6/conv2d_12/Relu;sequential_6/conv2d_12/BiasAdd;sequential_6/conv2d_12/Conv2D;sequential_6/conv2d_12/BiasAdd/ReadVariableOp f4 [32, 3, 3, 3]
-8.9007815e-05 -4.9025402e-05 0.00018624048 0.00041865255 0.00013140388 0.0005652895 0.00012599486 8.2336985e-05
0.00027582375 4.471064e-06 0.00017777861 -0.00045023425 0.00018367541 0.000120338176 -0.00039814506 0.00045255045
0.00020767572 0.00051917025 0.00041996042 -0.0006317933 0.0004776774 -0.00030251394 -0.00045370276 0.00061752624
0.000247746 -0.0003606714 -0.00030017266 0.00040870078 0.0005833893 0.00054113794 -0.0002596172 -0.0001123291
0.000374368 0.00041573838 -0.0003389963 -0.00014743741 -0.00050906045 4.8376147e-05 0.0001760669 -6.762493e-05
0.00015186216 -0.00026043656 0.00017083832 -0.00046217826 0.0004481532 -0.00041799812 0.00029633674 0.0002588959
-0.00056391594 -0.00053059554 0.00017474806 -0.0006318458 -3.8698337e-05 0.0004965089 0.00045012785 0.00032720898
2.1246195e-05 -0.00017879796 0.00041857056 -0.0006362813 -0.00055244117 0.00013623881 -0.00034160947 0.00014370507
0.00044730093 0.00027004568 3.9999224e-05 -2.4800986e-05 -0.00027032633 0.00017699976 -7.641847e-05 -0.00080528203
0.00022783219 9.081637e-05 -0.00015698728 -0.00050456915 -0.0002968344 0.00012857623 0.00034351723 0.00027446618
-0.00060612714 -0.00046584004 -0.00010401054 -0.0005494288 -0.0003445102 -0.00058624183 0.00013456542 -0.00025956423
-0.0005835005 -0.00022446945 -0.0006008262 0.00010022969 0.0005503221 -0.0005456096 0.0002400491 0.00023551262
-0.0004057833 -3.1901487e-05 0.000516494 -0.000488346 0.0005250781 0.0006223358 0.00031357017 0.00026154387
4.4738423e-05 -0.00023173925 0.0004329497 -0.0004323692 0.00018708369 0.00022555859 -0.00035609165 -0.0005507794
-0.00035654736 -0.00019210562 -0.00010424469 -7.5362346e-05 -0.00032929445 -0.00012411553 0.00029394255 0.0003983451
0.00039088793 -0.0005673894 -0.00045128987 0.00042240298 4.6048083e-07 -9.130162e-05 -0.00046676886 -7.630668e-05
-0.00039851913 0.0003376982 0.00033954295 -0.00025263263 0.00036956317 -0.0005649189 0.00022409095 0.00014234963
-7.481912e-05 0.0005099193 -0.0002883256 -0.00031482065 0.0005776948 0.0003064356 -0.00011675695 -0.00030062126
-5.3401553e-05 -0.00045337988 0.00067992765 0.00037282286 5.710583e-05 0.000502223 -0.00040414662 0.00013230232
0.00011264252 -0.000113626236 -0.00029487067 0.0004855991 0.00028763255 -0.0005626887 0.00044777978 0.00020687576
0.00032169433 0.0003455404 -0.00011423798 -0.000742855 -0.00039762037 -0.00041966685 2.0898215e-05 7.114902e-05
7.66772e-06 0.00046975815 0.00043513422 -0.00021099304 9.6569536e-05 -0.00044894527 -0.00019670602 0.00010260064
0.00037106758 0.0003621913 4.521632e-05 0.0007315063 -0.00033184816 -0.00079539727 -0.0004972591 -0.0005948053
-0.00028302017 -0.00021770163 -0.0005027708 0.00034181643 0.00038959322 0.000120624856 -0.00037142175 0.00019805667
-0.0004059293 0.00029788044 -0.0002719196 -0.00012118082 -0.0002680132 -0.00010251389 0.0003723052 -0.00025110264
-0.00019044118 -7.97587e-05 0.000349456 0.0003606281 -0.00013739227 0.00026638506 8.3494815e-05 6.2105355e-05
-0.0005183552 0.00034806845 -0.00031665503 -0.00026484235 -0.00033026203 -0.00028389267 0.0002735878 -0.0004790837
-0.00015039624 0.00015499572 0.00034697354 -0.00032893807 -0.0005056564 -0.00042959698 5.270268e-05 -0.00015021705
5.4854943e-05 0.00019792326 0.00014264746 -0.00051337946 -5.402525e-05 0.00015101433 0.00012615863 9.859905e-05
0.00022634085 0.00038776893 -0.00034654426 6.745082e-05 -0.0005007431 -0.00018552104 -0.000118902484 0.00031374738
0.00032710965 -0.00029246038 0.00028835388 0.00017796567 4.101944e-05 0.0005213924 -0.00066526775 -0.0004049008
0.00015580749 0.00038523978 -0.00056292786 -0.00022526686 -0.00065735634 0.00022768413 -9.068407e-05 -0.00014174887
00000000: b5a9 bab8 a0a0 4db8 8c49 4339 987e db39
00000010: 76c9 0939 f02f 143a 7d1d 0439 55ac ac38
00000020: 709c 9039 2606 9636 156a 3a39 6b0d ecb9
00000030: fe98 4039 115e fc38 20be d0b9 4b44 ed39
00000040: 87c3 5939 ed18 083a 222e dc39 ee9e 25ba
00000050: c670 fa39 bc9a 9eb9 f4de edb9 7ce1 213a
00000060: e8e3 8139 7f18 bdb9 7e60 9db9 e446 d639
00000070: 98ee 183a 27db 0d3a 3b1d 88b9 3a92 ebb8
00000080: d346 c439 76f7 d939 50bb b1b9 6e99 1ab9
00000090: 7872 05ba 7ee7 4a38 999e 3839 dcd1 8db8
000000a0: 303d 1f39 348b 88b9 1023 3339 8450 f2b9
000000b0: 1bf6 ea39 c226 dbb9 a55d 9b39 6bbc 8739
000000c0: c2d3 13ba aa17 0bba 933c 3739 74a2 25ba
000000d0: 0650 22b8 2628 023a 23ff eb39 3f8d ab39
000000e0: db39 b237 b67b 3bb9 9773 db39 1dcc 26ba
000000f0: b3d1 10ba 54db 0e39 0c1a b3b9 89af 1639
00000100: b783 ea39 eb94 8d39 d7c4 2738 b60b d0b7
00000110: 96ba 8db9 0399 3939 db42 a0b8 9019 53ba
00000120: 3de6 6e39 ab74 be38 f49c 24b9 1045 04ba
00000130: 70a0 9bb9 6bd2 0639 1a1a b439 3ae6 8f39
00000140: 81e4 1eba fe3b f4b9 3c20 dab8 8b07 10ba
00000150: 609f b4b9 06ae 19ba 211a 0d39 1f16 88b9
00000160: 0ef6 18ba 8f5f 6bb9 c480 1dba 6832 d238
00000170: 7e43 103a 3e07 0fba b1b5 7b39 f0f3 7639
00000180: 50bf d4b9 f6cd 05b8 5365 073a 5804 00ba
00000190: 65a5 093a 4024 233a ad66 a439 d31f 8939
000001a0: 84a5 3b38 08ff 72b9 86fd e239 9daf e2b9
000001b0: e52b 4439 ec83 6c39 d0b1 bab9 2e62 10ba
000001c0: faee bab9 f66f 49b9 f19d dab8 da0b 9eb8
000001d0: 27a5 acb9 0225 02b9 4d1c 9a39 f9d8 d039
000001e0: 17f0 cc39 dcbc 14ba 1a9b ecb9 f875 dd39
000001f0: 0138 f734 2f79 bfb8 a8b8 f4b9 d606 a0b8
00000200: 55f0 d0b9 160d b139 af04 b239 c773 84b9
00000210: eec1 c139 1117 14ba f5f9 6a39 b043 1539
00000220: 36e8 9cb8 1bac 053a 682a 97b9 830e a5b9
00000230: 7170 173a 17a9 a039 69db f4b8 b49c 9db9
00000240: 7bfb 5fb8 9eb3 edb9 2c3d 323a 7077 c339
00000250: eb84 6f38 9da7 033a a4e3 d3b9 a2ba 0a39
00000260: 7e3a ec38 9f4a eeb8 df98 9ab9 0298 fe39
00000270: 63cd 9639 6681 13ba fcc3 ea39 caec 5839
00000280: 15a9 a839 a629 b539 0c93 efb8 28bc 42ba
00000290: b477 d0b9 bb06 dcb9 934e af37 d735 9538
000002a0: 9ba4 0037 df49 f639 ba22 e439 033e 5db9
000002b0: 6085 ca38 6a60 ebb9 df42 4eb9 4d2b d738
000002c0: d98b c239 7ee4 bd39 a7a6 3d38 8fc2 3f3a
000002d0: e8fb adb9 3582 50ba 7e5a 02ba b5ec 1bba
000002e0: 5362 94b9 d646 64b9 61cc 03ba d335 b339
000002f0: 5142 cc39 faf7 fc38 62bb c2b9 6fad 4f39
00000300: e9d2 d4b9 d62c 9c39 6e90 8eb9 7522 feb8
00000310: 1f84 8cb9 bafc d6b8 f531 c339 6da6 83b9
00000320: 2ab1 47b9 2044 a7b8 3137 b739 af12 bd39
00000330: f510 10b9 99a9 8b39 f019 af38 8f3e 8238
00000340: 3be2 07ba f57c b639 b804 a6b9 8ada 8ab9
00000350: 0527 adb9 6ed7 94b9 5570 8f39 872d fbb9
00000360: afb3 1db9 5986 2239 00ea b539 5275 acb9
00000370: 078e 04ba 883b e1b9 120d 5d38 9583 1db9
00000380: 0c14 6638 9f89 4f39 a393 1539 5094 06ba
00000390: 2c99 62b8 9a59 1e39 7349 0439 f6c6 ce38
000003a0: e955 6d39 774d cb39 62b0 b5b9 6274 8d38
000003b0: 4d44 03ba 6d88 42b9 495b f9b8 767e a439
000003c0: ea7f ab39 5e55 99b9 342e 9739 4c9c 3a39
000003d0: 4a0c 2c38 0dae 083a 5d65 2eba de48 d4b9
000003e0: 4160 2339 02fa c939 7391 13ba 9d35 6cb9
000003f0: 7052 2cba 7ebe 6e39 a42d beb8 6ca2 14b9

sequential_6/conv2d_12/BiasAdd/ReadVariableOp f4 [32]
-0.09249354 -0.011216459 0.02490878 0.08773433 -0.024535652 -0.060220283 0.05096536 -0.015197207
-0.01320304 -0.00012520791 0.006654228 0.047898415 -0.04653321 -0.029285403 -0.042677686 -0.044025376
0.029535176 -0.003701995 -0.0052754204 -0.06824573 -0.023701223 0.01982598 -0.01501655 -0.010066343
-0.06545073 0.050276734 0.0030222074 0.060068365 -0.020119177 -0.02676458 -0.010780305 0.078445815
00000000: 416d bdbd 3dc5 37bc 7f0d cc3c 0eae b33d
00000010: fefe c8bc 8ba9 76bd 0ec1 503d b5fd 78bc
00000020: 9051 58bc 3e4a 03b9 b60b da3b 2131 443d
00000030: 9b99 3ebd f1e7 efbc ccce 2ebd f453 34bd
00000040: c1f3 f13c 2b9d 72bb 6fdd acbb 6bc4 8bbd
00000050: 1129 c2bc 186a a23c fa07 76bc 4ded 24bc
00000060: 080b 86bd faee 4d3d 3a10 463b 3f0a 763d
00000070: f9d0 a4bc 6441 dbbc e09f 30bc 33a8 a03d

sequential_6/conv2d_13/BiasAdd/ReadVariableOp f4 [64]
-0.037210505 -0.02335328 -0.022632645 -0.040865425 0.04933111 -0.04226517 -0.010753533 -0.0262016
-0.049223702 -0.028422365 -0.012706639 -0.030905163 0.019489624 -0.017768662 -0.010255518 0.019916736
-0.011450833 -0.012738575 -0.011516712 -0.01926842 -0.0022543164 0.01267606 0.024600027 -0.006189178
0.058194377 -0.01255895 -0.018529026 -0.0022791368 -0.005137882 0.011824252 -0.053543296 -0.016078062
-0.043828532 0.0072814785 -0.021046517 -0.04558578 -0.037553124 0.013641611 -0.024535187 -0.0019473115
0.060058385 0.049782958 0.021290835 -0.010845184 -0.02043739 -0.0030183464 -0.03619403 -0.026298234
-0.0149220135 -0.01824444 -0.01544662 -0.017281404 -0.022881208 -0.03744841 -0.023865985 -0.034219388
-0.029903606 -0.025383063 0.038616683 -0.025947882 -0.048571024 -0.033117466 -0.070363276 -0.013268354
00000000: 0b6a 18bd 614f bfbc 1968 b9bc 8162 27bd
00000010: 6b0f 4a3d 3e1e 2dbd 962f 30bc bda4 d6bc
00000020: cb9e 49bd 05d6 e8bc 822f 50bc d32c fdbc
00000030: b4a8 9f3c 968f 91bc c306 28bc 6c28 a33c
00000040: 469c 3bbc 75b5 50bc 97b0 3cbc ced8 9dbc
00000050: 27bd 13bb 40af 4f3c ff85 c93c 97ce cabb
00000060: 3a5d 6e3d 0ec4 4dbc 2fca 97bc 925d 15bb
00000070: ae5b a8bb 82ba 413c 3750 5bbd 24b6 83bc
00000080: 8c85 33bd 7899 ee3b bf69 acbc 28b8 3abd
00000090: 4ed1 19bd 1081 5f3c 04fe c8bc ee3c ffba
000000a0: c8ff 753d 37e9 4b3d 1e6a ae3c 00b0 31bc
000000b0: 506c a7bc 73cf 45bb 3140 14bd 656f d7bc
000000c0: 767b 74bc 5d75 95bc d213 7dbc bb91 8dbc
000000d0: 5f71 bbbc 8163 19bd 9982 c3bc a129 0cbd
000000e0: 68f8 f4bc 24f0 cfbc 872c 1e3d a790 d4bc
000000f0: 69f2 46bd 2ea6 07bd 9f1a 90bd 8363 59bc

sequential_6/conv2d_14/BiasAdd/ReadVariableOp f4 [64]
-0.045978837 -0.034021024 -0.032608736 0.016444787 0.01868802 0.040855374 0.062587194 -0.054067645
0.043120153 -0.015726952 0.051897354 -0.0089725545 0.00019968039 0.03377778 -0.035300013 -0.030309815
-0.014045812 0.019288354 -0.0098980935 -0.011700498 0.0064937947 0.02238958 -0.00059340394 0.0020177276
-0.035955787 -0.0375452 -0.0072510703 0.018815063 -0.010197916 0.032353703 0.038653433 -0.011448317
-0.025597923 -0.019850139 0.044678405 0.023268351 0.020701962 0.024301859 0.0117210895 0.02961387
-0.021290064 0.07959003 -0.04780057 -0.035406865 -0.02527789 0.007124585 -0.0049755597 0.011459592
-0.0050198315 -0.024727466 -0.045189448 0.013124648 0.01412409 0.040293414 0.012777917 0.0023200577
-0.009590461 -0.017944558 0.04345808 0.01311352 0.032713808 0.062410627 0.056929175 -0.05745254
00000000: 4e54 3cbd a159 0bbd bd90 05bd 38b7 863c
00000010: 9e17 993c f757 273d b72d 803d 0976 5dbd
00000020: c29e 303d cfd5 80bc 5292 543d 9f01 13bc
00000030: 4c61 5139 925a 0a3d bf96 10bd 4a4c f8bc
00000040: 6820 66bc 9c02 9e3c 9d2b 22bc 72b3 3fbc
00000050: e6c9 d43b 5a6a b73c aa8e 1bba da3b 043b
00000060: 6046 13bd ffc8 19bd 639a edbb 0c22 9a3c
00000070: 2915 27bc 5185 043d 1053 1e3d b991 3bbc
00000080: bcb2 d1bc c29c a2bc b400 373d 459d be3c
00000090: 2997 a93c b114 c73c d009 403c c998 f23c
000000a0: 8068 aebc 1900 a33d 88ca 43bd ca06 11bd
000000b0: 9413 cfbc 5a75 e93b 050a a3bb 03c1 3b3c
000000c0: 667d a4bb 4191 cabc 9218 39bd c308 573c
000000d0: ba68 673c b50a 253d 785a 513c 1c0c 183b
000000e0: 4f21 1dbc 7700 93bc 1a01 323d 17da 563c
000000f0: eafe 053d 49a2 7f3d 912e 693d 5b53 6bbd

sequential_6/conv2d_15/BiasAdd/ReadVariableOp f4 [64]
0.022497598 -0.07877188 -0.029727492 0.0028358332 -0.0061195027 0.0066518784 -0.03572955 0.017203342
0.041004974 0.04794739 -0.011786569 -0.036439806 -0.008793986 -0.043153297 0.021990586 -0.0033240512
0.009902065 -0.02508559 0.008889437 -0.034499202 -0.018547177 0.007740344 -0.03568694 0.0043336116
-0.0029079295 0.021731276 0.04329298 0.053481437 -0.025654322 0.034944206 0.0137267485 -0.0055006556
0.035967354 -0.011543807 -0.0578022 0.028859494 0.010154346 0.047282346 0.0709039 0.009804584
-0.046619624 -0.013935011 -0.011154598 -0.015563398 0.04204129 -0.038105715 -0.017780118 0.030867372
-0.014689796 0.016316904 0.027261699 0.014972754 0.04519413 -0.017886939 -0.028731259 -0.014023997
0.018555257 -0.003854684 0.01665332 -0.008207744 0.032371253 -0.0068803513 0.014938201 -0.0061815483
00000000: e24c b83c 2753 a1bd 1287 f3bc 63d9 393b
00000010: 1c86 c8bb 00f8 d93b 2659 12bd 06ee 8c3c
00000020: d5f4 273d 7b64 443d 741c 41bc e841 15bd
00000030: a714 10bc 83c1 30bd 9a25 b43c 53d8 59bb
00000040: 453c 223c 4c80 cdbc 00a5 113c 094f 0dbd
00000050: 40f0 97bc b6a2 fd3b 782c 12bd f800 8e3b
00000060: f692 3ebb ca05 b23c fb53 313d 5a0f 5b3d
00000070: 0329 d2bc a821 0f3d 28e6 603c d83e b4bb
00000080: 8152 133d 3c22 3dbc 00c2 6cbd bf6a ec3c
00000090: 6a5e 263c 22ab 413d 1036 913d 68a3 203c
000000a0: 38f4 3ebd ac4f 64bc c6c1 36bc 9ffd 7ebc
000000b0: 7d33 2c3d bd14 1cbd 9ca7 91bc 92dd fc3c
000000c0: 78ad 70bc 07ab 853c ed53 df3c 4850 753c
000000d0: 7b1d 393d a187 92bc d15d ebbc e8c4 65bc
000000e0: 3201 983c de9e 7cbb 8b6c 883c c679 06bc
000000f0: b897 043d 9274 e1bb 5bbf 743c 968e cabb

sequential_6/conv2d_16/BiasAdd/ReadVariableOp f4 [64]
-0.023897056 -0.008028047 -0.027290603 -0.009768185 -0.008072271 -0.017170183 0.00013038857 -0.0052339393
-0.0063343486 0.013947344 0.03591396 -0.007243398 0.007219074 -0.02513797 -0.006629093 0.0021830725
-0.04553031 -0.018331673 -0.0024603114 0.0043619787 -0.037657768 0.05207347 0.028676583 0.009714726
0.042826805 0.04579106 0.0033053774 -0.02985279 0.044888835 -0.010647424 0.06952503 0.02652382
0.013877293 -0.028459825 -0.050037034 0.006831834 -0.00086677785 0.0041800747 -0.03702832 0.029997123
0.07083401 0.029811343 0.01682062 -0.022090627 -0.0070540407 -0.0062322593 0.01505835 0.04107358
-0.048347358 -0.060721185 0.0095149055 0.05662505 0.014603701 0.017345197 -0.039218154 -0.029175475
0.046134267 0.0039096484 0.0036056351 -0.009900066 -0.024853796 -0.016242158 -0.01775683 -0.0015630521
00000000: c2c3 c3bc 1288 03bc 8b90 dfbc bd0a 20bc
00000010: 8f41 04bc 7ca8 8cbc eab8 0839 7781 abbb
00000020: 5e90 cfbb 6783 643c 841a 133d 075a edbb
00000030: fb8d ec3b 25ee cdbc dd38 d9bb e111 0f3b
00000040: fe7d 3abd 4e2c 96bc 2d3d 21bb eeee 8e3b
00000050: 083f 1abd fe4a 553d 27eb ea3c 842a 1f3c
00000060: 296b 2f3d 688f 3b3d 089f 583b d78d f4bc
00000070: 5bdd 373d 8872 2ebc 2463 8e3d 7b48 d93c
00000080: 965d 633c 9424 e9bc a2f3 4cbd 94dd df3b
00000090: 7a38 63ba 02f9 883b 02ab 17bd 87bc f53c
000000a0: 6c11 913d eb36 f43c 66cb 893c 67f7 b4bc
000000b0: 9525 e7bb fb37 ccbb 4cb7 763c c53c 283d
000000c0: e107 46bd c7b6 78bd 68e4 1b3c abef 673d
000000d0: 5d44 6f3c 8417 8e3c 37a3 20bd 6801 efbc
000000e0: 49f7 3c3d 821c 803b 854c 6c3b e333 22bc
000000f0: 309a cbbc 460e 85bc c676 91bc 53df ccba

sequential_6/conv2d_17/BiasAdd/ReadVariableOp f4 [64]
-0.020488944 0.009099035 0.03351236 -0.019324299 0.03696259 -0.041763138 -0.010576539 0.006918071
0.0739172 -0.014086365 -0.022115111 -0.015980253 -0.054108396 -0.036427297 -0.008889797 -0.020352934
-0.018811421 0.06251879 0.00036355064 -0.01211396 -0.027605293 0.08504444 -0.016496124 -0.014121342
-0.007779986 0.021484895 0.074242346 0.03639939 -0.015493279 -0.046857163 -0.012699892 -0.020430313
-0.054461606 -0.023668041 0.026382308 -0.03193658 -0.0452304 0.0024090423 -0.021233851 -0.029166415
-0.009432601 -0.019882113 -0.012760154 0.0055452907 -0.0063336017 -0.026231589 0.040599015 -0.02190362
0.03662994 -0.020294245 -0.010572457 0.043397494 -0.058708612 -0.014413489 -0.03673853 0.010557752
-0.014077684 0.06943396 0.080649264 -0.004886779 -0.040870223 -0.008884963 0.00012673697 0.046060286
00000000: 6ed8 a7bc 1e14 153c 4244 093d fe4d 9ebc
00000010: 1666 173d d30f 2bbd 3849 2dbc fcb0 e23b
00000020: e761 973d 7fca 66bc c02a b5bc 05e9 82bc
00000030: c4a0 5dbd ca34 15bd 83a6 11bc 32bb a6bc
00000040: 691a 9abc da09 803d f19a be39 a279 46bc
00000050: 7f24 e2bc c82b ae3d e122 87bc 345d 67bc
00000060: 41ef febb 1701 b03c 5f0c 983d 8717 153d
00000070: 86d7 7dbc 4ced 3fbd 3513 50bc 795d a7bc
00000080: 2213 5fbd 7be3 c1bc b61f d83c eecf 02bd
00000090: 8343 39bd 06e1 1d3b 9df2 adbc 68ee eebc
000000a0: 328b 1abc d0df a2bc f70f 51bc 45b5 b53b
000000b0: 1a8a cfbb a1e3 d6bc 274b 263d 386f b3bc
000000c0: 4709 163d 1e40 a6bc 1938 2dbc 92c1 313d
000000d0: 7178 70bd 8e26 6cbc 247b 16bd 6cfa 2c3c
000000e0: 16a6 66bc 6433 8e3d 712b a53d 4621 a0bb
000000f0: 8967 27bd 3c92 11bc b2e4 0439 b6a9 3c3d

sequential_6/conv2d_13/Conv2D f4 [64, 3, 3, 32]
0.03477559 0.033316314 -0.054033715 0.0011404109 0.070423394 -0.015267406 0.040808443 -0.061730046
0.05471698 0.053547062 0.045585502 0.022745706 -0.0042224433 0.01811418 -0.11515241 -0.07143203
0.052292436 0.0155088 -0.030437887 0.002373587 0.047111094 -0.04404897 -0.059710857 -0.0067559723
-0.076636046 0.03184822 -0.00732792 -0.018657012 0.0028476869 -0.03591031 -0.04155367 -0.030465985
-0.036992304 -0.021551363 -0.060630027 -0.019666288 0.016946804 -0.12240059 0.004232076 -0.06826215
0.00052049494 -7.951547e-05 -0.09029221 -0.033957038 0.009042506 -0.055461407 -0.032166418 -0.047962964
0.06998967 0.04049413 -0.03540669 0.0691137 -0.03826885 -0.040311746 -0.07056258 -0.07243717
0.047742493 -0.08076312 -0.017731624 0.015429597 0.0027196705 -0.005527193 0.03426189 0.07074433
0.018213121 0.06474671 -0.06126938 0.020179564 -0.009943304 -0.07631104 0.042292655 -0.07414523
-0.024486372 0.025616148 0.033149384 -0.00916963 -0.033345476 0.024267828 -0.023071535 -0.0648465
-0.07162971 -0.08050039 0.053633593 0.0072238483 -0.010836683 0.0015853941 -0.015367953 0.03239753
-0.07210679 -0.013694984 0.033153974 -0.10029743 -0.019740133 -0.021895958 0.004422147 -0.0065465104
-0.065810695 0.006875422 -0.032634348 0.02752324 -0.06948059 -0.111866854 0.0069873217 0.03723896
-0.0020914332 0.0048439386 -0.055354767 0.021238815 0.017921753 -0.028474621 0.025016481 -0.07381702
-0.04938694 -0.06885349 0.0075319037 -0.004656904 0.009204736 0.05651553 0.0029457882 0.015533456
0.017094163 -0.053343926 -0.08727484 0.0031676563 0.05556098 -0.02200078 -0.06617102 -0.041327793
-0.0676704 -0.053789314 -0.031472113 -0.013578361 0.04274937 -0.06105312 0.027857438 -0.048952788
0.012781846 -0.045658477 -0.089936875 -0.03348681 -0.055241182 0.034602985 -0.06153958 0.021707011
-0.030448137 0.06277598 0.010310866 0.074347034 -0.07376072 -0.08130128 -0.055511404 0.04713309
-0.065919876 -0.046340358 -0.06991162 0.055460185 -0.024365472 0.021185074 0.06898299 -0.10235476
0.031876348 -0.12061695 0.039899535 0.0304068 -0.08695241 0.02745461 0.010735335 0.04862911
0.025064461 -0.060102932 -0.091972604 -0.06211767 -0.015486399 0.0693554 -0.0106486585 0.05055222
-0.08003648 -0.032041848 -0.04208982 -0.06417159 0.05177476 -0.023502361 -0.06166741 0.019399675
-0.025139648 0.012479378 -0.08887223 -0.078457 -0.07545385 -0.032677896 -0.061243497 -0.046755355
-0.08748693 -0.09767076 0.011300151 0.029801533 0.029373407 0.031942155 0.004975511 0.02768786
0.0060587586 -0.04675785 -0.014803544 -0.07075943 0.021672701 -0.070745364 0.01544034 -0.068374835
0.023941167 -0.027105914 -0.05145043 -0.026496634 0.02653888 0.06167199 0.078786805 -0.0009861009
-0.090864524 -0.07636757 0.05825486 0.012777016 0.02061372 0.020675045 0.027985238 -0.05303575
-0.027751967 -0.015159016 0.06478491 0.005413911 -0.012436575 0.051368933 -0.05928214 -0.042098146
-0.08466693 -0.072644554 0.04018567 0.06928271 -0.064460106 -0.0019882808 0.06352845 0.009658738
-0.0041229166 -0.026357101 0.058714338 0.046415947 -0.09255105 -0.049555086 0.03641411 -0.07823674
0.0036642568 -0.078092076 0.015904749 -0.01017848 -0.06914878 -0.014663437 0.08242616 -0.09771044
00000000: d970 0e3d b076 083d 7552 5dbd d779 953a
00000010: 243a 903d 2424 7abc c126 273d a5d8 7cbd
00000020: e91e 603d 2a54 5b3d ddb7 3a3d 3455 ba3c
00000030: 6c5c 8abb 3064 943c 07d5 ebbd f54a 92bd
00000040: 9830 563d 9f18 7e3c e058 f9bc 2f8e 1b3b
00000050: 90f7 403d b16c 34bd 5f93 74bd 3461 ddbb
00000060: 5cf3 9cbd 4773 023d 0c1f f0bb 97d6 98bc
00000070: 42a0 3a3b b016 13bd 2e34 2abd cd93 f9bc
00000080: 3e85 17bd 7c8c b0bc 3157 78bd 321b a1bc
00000090: 06d4 8a3c 29ad fabd 3aad 8a3b 07cd 8bbd
000000a0: d371 083a 8bc1 a6b8 1feb b8bd 8916 0bbd
000000b0: 0527 143c 802b 63bd efc0 03bd d074 44bd
000000c0: be56 8f3d 2cdd 253d 9b06 11bd 7c8b 8d3d
000000d0: ccbf 1cbd ee1d 25bd 1d83 90bd f059 94bd
000000e0: a28d 433d 2267 a5bd e941 91bc 6ccc 7c3c
000000f0: 803c 323b 751d b5bb 3256 0c3d 67e2 903d
00000100: af33 953c ec99 843d 9af5 7abd 9d4f a53c
00000110: 3de9 22bc f648 9cbd 103b 2d3d 74d9 97bd
00000120: a597 c8bc f5d8 d13c a6c7 073d 373c 16bc
00000130: 4495 08bd 53cd c63c 8400 bdbc 3ece 84bd
00000140: 99b2 92bd 63dd a4bd e6ae 5b3d 08b6 ec3b
00000150: 588c 31bc 00cd cf3a dec9 7bbc 46b3 043d
00000160: baac 93bd ed60 60bc 76cc 073d bd68 cdbd
00000170: 0fb6 a1bc 275f b3bc a8e7 903b 1c84 d6bb
00000180: c2c7 86bd 384b e13b 98ab 05bd 6b78 e13c
00000190: d74b 8ebd 731a e5bd e7f5 e43b e187 183d
000001a0: 6d10 09bb e7b9 9e3b aebb 62bd 06fd ad3c
000001b0: a4d0 923c 9c43 e9bc 5def cc3c 612d 97bd
000001c0: f649 4abd 0f03 8dbd 30ce f63b f198 98bb
000001d0: 76cf 163c d47c 673d 200e 413b 0980 7e3c
000001e0: 0f09 8c3c 297f 5abd 27bd b2bd 7498 4f3b
000001f0: e993 633d fb3a b4bc ac84 87bd 5547 29bd
00000200: c796 8abd 2f52 5cbd e7e8 00bd c677 5ebc
00000210: f719 2f3d d612 7abd 4835 e43c b882 48bd
00000220: f36a 513c 6204 3bbd d330 b8bd 7729 09bd
00000230: 9444 62bd dcbb 0d3d ed10 7cbd e7d2 b13c
00000240: 5f6e f9bc b190 803d e8ee 283c 4243 983d
00000250: dc0f 97bd 4981 a6bd ed5f 63bd a10e 413d
00000260: 0001 87bd 63cf 3dbd d32d 8fbd 382a 633d
00000270: 199a c7bc 528c ad3c f446 8d3d 5f9f d1bd
00000280: c690 023d 0506 f7bd b26d 233d ae17 f93c
00000290: 1b14 b2bd 7ee8 e03c 42e3 2f3c 512f 473d
000002a0: fc53 cd3c 7e2e 76bd 225c bcbd 196f 7ebd
000002b0: aaba 7dbc 340a 8e3d b677 2ebc d80f 4f3d
000002c0: 2bea a3bd 503e 03bd 6066 2cbd 656c 83bd
000002d0: c511 543d 0688 c0bc f796 7cbd 11ec 9e3c
000002e0: aaf1 cdbc 4e76 4c3c a502 b6bd 10ae a0bd
000002f0: 8c87 9abd 42d9 05bd 76da 7abd 8b82 3fbd
00000300: 592c b3bd 9b07 c8bd 4524 393c 5822 f43c
00000310: 80a0 f03c c7d5 023d 9d09 a33b a7d1 e23c
00000320: 8d88 c63b 2985 3fbd 908a 72bc 52ea 90bd
00000330: f38a b13c f2e2 90bd 7bf9 7c3c 1b08 8cbd
00000340: 4420 c43c 390d debc b0bd 52bd 780f d9bc
00000350: 1168 d93c c59b 7c3d fa5a a13d 0e40 81ba
00000360: 2e17 babd 9a66 9cbd a69c 6e3d b056 513c
00000370: 1bde a83c b65e a93c 4c41 e53c 043c 59bd
00000380: 1858 e3bc 855d 78bc f3ad 843d 2d67 b13b
00000390: c7c2 4bbc 3b68 523d d4d1 72bd 1b6f 2cbd
000003a0: db65 adbd abc6 94bd bb99 243d 18e4 8d3d
000003b0: a903 84bd d14d 02bb 341b 823d af3f 1e3c
000003c0: 8819 87bb d9ea d7bc 727e 703d a61e 3e3d
000003d0: 688b bdbd 46fa 4abd f626 153d 953a a0bd
000003e0: 0724 703b bdee 9fbd ad4a 823c a4c3 26bc
000003f0: e09d 8dbd ea3e 70bc 0ccf a83d 691c c8bd

sequential_6/conv2d_14/Conv2D f4 [64, 3, 3, 64]
-0.045490373 0.06910843 0.0052158693 -0.05039026 0.015412233 0.01589382 -0.017191399 -0.028185718
0.042730123 0.03753003 0.05445716 0.047149546 0.010193032 0.007087918 -0.023582967 -0.05835799
-0.027493656 -0.018962387 0.04912892 0.044706196 -0.07878296 -0.020132579 -0.030526685 0.022478163
-0.09647721 -0.051554598 -0.055869106 0.0148885595 0.029819665 0.030671332 -0.014079871 -0.054758444
-0.09190254 -0.019361535 -0.046938576 -0.021479845 -0.069216125 -0.025622282 0.050995547 -0.017066289
0.06429728 -0.0834192 -0.044687275 -0.029924983 -0.049890004 -0.08551538 -0.09382178 -0.07340143
-0.02016071 -0.06948971 -0.061373454 0.012588622 -0.102345236 -0.027664028 0.0051532914 -0.010286906
0.00949724 -0.052626584 0.06097919 -0.02422754 -0.027046252 0.000264994 0.06576648 0.051110387
0.023707582 0.051671237 0.036076196 0.02317916 0.018336596 -0.07953726 -0.055334974 -0.04146991
0.07487188 -0.055928342 -0.011496484 -0.020664956 -0.06116375 -0.038232937 0.052530292 -0.023671316
-0.010094007 -0.008365132 0.053665094 -0.07212148 -0.005319801 -0.031394467 -0.062906384 -0.09957005
-0.07588702 0.05842988 -0.023903329 -0.06119141 0.003715878 -0.09665123 0.020316303 -0.10217944
-0.088201955 -0.089516535 0.016224902 -0.04178761 -0.018739449 -0.0057954118 -0.005538019 -0.06275074
0.07613595 0.018201852 0.016920563 0.057307597 0.026284365 -0.110982314 0.02987503 0.016208954
-0.02310668 0.035447337 0.060461264 0.012299532 -0.031502366 0.01151268 -0.034624826 -0.01585541
-0.037675433 0.008184715 0.038325813 -0.019314237 -0.047966532 0.00426283 -0.0078110853 -0.06889525
0.03755981 0.056197047 0.01738428 0.048709944 -0.020234978 0.024534628 0.040571205 -0.019263444
-0.0030682452 0.03677164 0.070008524 -0.023952791 -0.087055646 -0.03740727 0.053580817 -0.037126273
0.023785422 -0.025423339 -0.041701496 -0.07215818 0.0544933 -0.007161052 0.022444718 -0.060219895
0.013051265 0.022857193 0.036868993 -0.00967624 -0.0802033 0.0020433022 -0.05916942 -0.056458455
0.018724542 0.027366554 0.01728394 0.06481631 0.028754463 0.056570627 -0.073251285 -0.02418148
-0.053077977 0.0065771644 0.023740437 -0.05574714 -0.058132023 0.0026049593 0.044050973 0.0073947506
-0.09957909 -0.035438202 0.041226573 0.05823365 -0.10715047 -0.067134865 -0.042497415 -0.05852527
0.04412057 -0.018995836 -0.026008014 -0.052208785 -0.03481948 0.03484325 -0.062393293 0.051294986
-0.0049226754 0.02236458 -0.056273066 -0.014738425 -0.015818596 -0.026490375 0.018813632 0.04120999
-0.03850424 -0.044144724 -0.06756105 0.041588992 -0.024512641 -0.04247626 -0.0073974966 -0.0821896
-0.022882665 0.022702504 -0.033132605 0.024264187 -0.018018741 0.07753291 0.028282288 0.016510209
-0.05148307 0.07010183 -0.056087192 -0.054560665 -0.06495936 0.0065498212 0.0114063835 -0.04177212
0.014030075 -0.04200213 0.026638882 0.043692008 -0.104060344 0.038064018 0.005740126 -0.10826596
0.008675824 -0.058469992 -0.083506465 -0.048327465 -0.061552566 -0.037626952 -0.05597947 -0.006586866
-0.008957497 -0.008813765 0.027865095 0.003446506 0.0070210486 -0.033803068 -0.04415306 0.029122155
-0.05833295 -0.031887993 0.014019562 -0.06874201 0.035727035 -0.07240955 -0.033109635 -0.07207761
00000000: 1d54 3abd b888 8d3d e2e9 aa3b 0466 4ebd
00000010: 9783 7c3c c233 823c fad4 8cbc bce5 e6bc
00000020: c805 2f3d 17b9 193d 790e 5f3d e21f 413d
00000030: ad00 273c c441 e83b 1131 c1bc ca08 6fbd
00000040: 603a e1bc 0257 9bbc 683b 493d d81d 373d
00000050: f658 a1bd 14ed a4bc 1913 fabc 2024 b83c
00000060: d895 c5bd ea2a 53bd 01d7 64bd 25ef 733c
00000070: 5f48 f43c 7242 fb3c 42af 66bc 644a 60bd
00000080: 6637 bcbd 159c 9ebc aa42 40bd 80f6 afbc
00000090: 2fc1 8dbd d2e5 d1bc b5e0 503d 9ace 8bbc
000000a0: 4bae 833d afd7 aabd 010a 37bd 3d25 f5bc
000000b0: 7659 4cbd b022 afbd a225 c0bd 7d53 96bd
000000c0: 1328 a5bc 9f50 8ebd bb62 7bbd 8240 4e3c
000000d0: 619a d1bd ac9f e2bc f1dc a83b 698a 28bc
000000e0: 509a 1b3c f98e 57bd 51c5 793d d578 c6bc
000000f0: 1a90 ddbc e5ee 8a39 94b0 863d 2059 513d
00000100: 6736 c23c 38a5 533d a2c4 133d 39e2 bd3c
00000110: a136 963c 6ee4 a2bd eda6 62bd 5adc 29bd
00000120: 6e56 993d 1e15 65bd c05b 3cbc 8e49 a9bc
00000130: d786 7abd 249a 1cbd 012a 573d 59ea c1bc
00000140: 5561 25bc e80d 09bc eecf 5b3d 6db4 93bd
00000150: ba51 aebb 7c97 00bd 10d5 80bd 62eb cbbd
00000160: a76a 9bbd 2b54 6f3d ead0 c3bc d8a3 7abd
00000170: 1686 733b 14f1 c5bd 606e a63c 7443 d1bd
00000180: 3aa3 b4bd 7254 b7bd 16ea 843c 7c29 2bbd
00000190: 7983 99bc 70e7 bdbb 4578 b5bb 7683 80bd
000001a0: 2aed 9b3d 0d1c 953c fe9c 8a3c 5fbb 6a3d
000001b0: 4f52 d73c b24a e3bd 7bbc f43c a4c8 843c
000001c0: 384a bdbc 3a31 113d 3ba6 773d fa83 493c
000001d0: a008 01bd ae9f 3c3c c3d2 0dbd 34e3 81bc
000001e0: 8e51 1abd 2f19 063c 87fb 1c3d e438 9ebc
000001f0: 8e78 44bd 36af 8b3b 22f4 ffbb f418 8dbd
00000200: 51d8 193d e02e 663d 7a69 8e3c 1484 473d
00000210: d3c3 a5bc d8fc c83c fe2d 263d 5fce 9dbc
00000220: 9d14 49bb dc9d 163d a160 8f3d a538 c4bc
00000230: 3b4a b2bd 5e38 19bd 8f77 5b3d b811 18bd
00000240: a5d9 c23c 9b44 d0bc 30cf 2abd abc7 93bd
00000250: 5e34 5f3d 42a7 eabb fcdd b73c 23a9 76bd
00000260: f9d4 553c 023f bb3c f103 173d 1889 1ebc
00000270: a141 a4bd ece8 053b a25b 72bd fb40 67bd
00000280: 3664 993c d32f e03c 0d97 8d3c 6abe 843d
00000290: 7b8e eb3c 9ab6 673d c504 96bd 3d18 c6bc
000002a0: 4b68 59bd 4185 d73b 4e7b c23c 1d57 64bd
000002b0: d81b 6ebd f7b7 2a3b cb6e 343d aa4f f23b
000002c0: 1ff0 cbbd a627 11bd 32dd 283d 6886 6e3d
000002d0: b571 dbbd 017e 89bd c511 2ebd 32b8 6fbd
000002e0: c5b7 343d 289d 9bbc c20e d5bc e1d8 55bd
000002f0: df9e 0ebd ccb7 0e3d 1c90 7fbd b11a 523d
00000300: 654e a1bb ec35 b73c 967e 66bd 6f79 71bc
00000310: 0096 81bc 5802 d9bc 0c1f 9a3c cecb 283d
00000320: 9fb6 1dbd 19d1 34bd 735d 8abd 3859 2a3d
00000330: bcce c8bc 96fb 2dbd b366 f2bb 0553 a8bd
00000340: 6d74 bbbc 9afa b93c 0eb6 07bd b0c5 c63c
00000350: 0a9c 93bc 93c9 9e3d 42b0 e73c 6b40 873c
00000360: e9df 52bd 8c91 8f3d afbb 65bd 017b 5fbd
00000370: 6a09 85bd e29f d63b d7e1 3a3c 3e19 2bbd
00000380: 66de 653c 6d0a 2cbd c939 da3c 64f6 323d
00000390: 971d d5bd 04e9 1b3d ab17 bc3b 8bba ddbd
000003a0: 0b25 0e3c 3b7e 6fbd 7005 abbd 05f3 45bd
000003b0: 8b1e 7cbd b81e 1abd bb4a 65bd a3d6 d7bb
000003c0: 77c2 12bc 9c67 10bc 5745 e43c c7de 613b
000003d0: d310 e63b 1675 0abd d7d9 34bd 9691 ee3c
000003e0: 88ee 6ebd fc9c 02bd 4eb2 653c 9cc8 8cbd
000003f0: 8356 123d 754b 94bd f89d 07bd 6d9d 93bd

sequential_6/conv2d_15/Conv2D f4 [64, 3, 3, 64]
0.019191941 -0.02315093 0.10913034 -0.028496638 -0.14333774 -0.032257173 -0.02505778 0.10769368
-0.038368173 0.061356924 -0.054243598 -0.046249203 0.011546213 0.011833911 -0.03300317 0.034783192
-0.041799072 -0.072555654 0.06174914 -0.075098686 -0.07588157 -0.033756502 -0.009915996 0.013577801
0.023003018 0.065565765 -0.0012966653 -0.021472419 -0.034382135 -0.091207065 0.040843032 -0.015973339
-0.010615964 0.052636594 -0.02963228 -0.095471196 0.08420286 0.038870033 -0.025734995 -0.061652955
-0.070106946 -0.020822324 -0.009852866 -0.025792152 -0.04673991 -0.03340326 -0.07901772 -0.06666539
0.090822056 -0.06571448 0.038595345 -0.010946868 -0.027893942 -0.14310543 -0.007443262 -0.008513241
0.07493883 -0.04482077 -0.07652654 -0.01262099 -0.04723368 -0.04177353 -0.07644098 0.0147435535
-0.052379765 0.059338816 0.057229854 -0.09314486 -0.11545436 -0.011273291 -0.019028569 0.05066977
-0.14584714 0.00050764804 0.048048835 -0.009950018 -0.07698169 -0.064354 -0.031232176 0.047318306
-0.026001755 -0.010802189 0.037745684 -0.032968305 0.019841475 -0.019756585 -0.08407351 0.025884291
0.049499966 0.024206212 0.043736413 0.047857646 -0.029773043 -0.090167955 -0.06723305 -0.053453673
-0.046896406 0.058256228 0.04033805 -0.04500117 -0.034004807 0.07219143 -0.10052755 -0.06712281
0.044261154 0.006513617 0.008471625 0.044902172 -0.03853585 -0.03684333 -0.026146628 -0.0877875
0.0050930697 0.008767483 -0.025552053 0.020277616 0.02455618 -0.005523322 0.053571723 -0.069745615
0.03661181 0.021996377 -0.047693066 0.0155584 -0.054193266 -0.11306128 -0.041656744 -0.043034997
-0.0029421675 0.013471692 0.040808976 0.05031916 -0.08599375 -0.07635341 -0.036518283 0.016206712
-0.073119946 0.06306902 0.033634864 0.033543263 0.00556306 -0.09527072 -0.046203744 -0.03092059
-0.0019856293 -0.08244699 -0.034450736 -0.07602389 -0.030803537 0.0029337034 0.027847657 -0.06371698
0.036564223 0.0003541438 -0.076820105 -0.08568908 -0.05772663 -0.050289653 0.0030309907 0.04615472
-0.043109946 -0.058465343 0.03396772 -0.04766863 -0.010732489 0.048593704 -0.01703412 0.051522147
0.027155397 -0.07051745 0.041161377 0.0015517942 0.032405615 0.03755347 -0.033028927 -0.033664376
0.022728365 -0.057387028 0.026597757 0.026934398 -0.031472772 -0.08173474 0.0659067 0.05625771
-0.044429008 0.005647668 0.0064290212 -0.026534917 0.0035716132 -0.10433494 0.1278376 -0.017921766
-0.024489082 0.07668758 -0.021638138 0.01754223 -0.073015764 -0.004303865 0.020497123 -0.006613901
-0.112572715 -0.048694603 -0.06926799 0.020264259 -0.053408757 0.0036709108 0.05907964 -0.042011406
0.07524363 0.0017102204 0.05381537 0.02319003 -0.09971614 -0.009889024 0.016564561 -0.011759995
0.043826234 -0.0565739 0.014165316 0.02816048 -0.019759418 -0.03104611 -0.088616565 -0.06030255
0.008938748 0.026902098 -0.06700434 -0.12432245 -0.025610289 -0.0732165 0.03002671 -0.10557531
0.052528527 0.014095948 -0.0775544 0.0076356097 -0.07062872 -0.074159496 -0.019458517 -0.08298238
0.030893562 -0.026553169 0.024530167 0.05899311 -0.11044636 -0.13020337 -0.015251953 -0.039628934
0.01669537 0.008184547 0.0077498243 -0.03922763 -0.029757034 0.0016722534 -0.0061120694 0.024618728
00000000: 6b38 9d3c 05a7 bdbc ba7f df3d c871 e9bc
00000010: 21c7 12be 1920 04bd f945 cdbc 818e dc3d
00000020: f227 1dbd 6651 7b3d 892e 5ebd ce6f 3dbd
00000030: 542c 3d3c 05e3 413c 552e 07bd d278 0e3d
00000040: 8135 2bbd 0f98 94bd abec 7c3d 57cd 99bd
00000050: cc67 9bbd 4244 0abd b476 22bc 6d75 5e3c
00000060: d370 bc3c 5847 863d def4 a9ba ede6 afbc
00000070: 48d4 0cbd c5ca babd 064b 273d 85da 82bc
00000080: 95ee 2dbc 7899 573d 65bf f2bc 6786 c3bd
00000090: 8d72 ac3d 2f36 1f3d 32d2 d2bc cf87 7cbd
000000a0: 3b94 8fbd 9493 aabc ea6d 21bc 104a d3bc
000000b0: 5972 3fbd dbd1 08bd 0bd4 a1bd dd87 88bd
000000c0: ea00 ba3d 5095 86bd 2716 1e3d 7e5a 33bc
000000d0: d681 e4bc 3b8a 12be 9be6 f3bb 1f7b 0bbc
000000e0: 8879 993d fc95 37bd f2b9 9cbd 45c8 4ebc
000000f0: 1a78 41bd b91a 2bbd 178d 9cbd f28e 713c
00000100: 2a8c 56bd 420d 733d da69 6a3d bbc2 bebd
00000110: 5673 ecbd 9cb3 38bc cde1 9bbc 1b8b 4f3d
00000120: f458 15be af13 053a dbce 443d 6605 23bc
00000130: 94a8 9dbd 08cc 83bd 9fda ffbc d7d0 413d
00000140: a201 d5bc aafb 30bc 389b 1a3d c609 07bd
00000150: 978a a23c 90d8 a1bc bb2e acbd 4b0b d43c
00000160: 7ac0 4a3d 1b4c c63c f424 333d 6106 443d
00000170: 99e6 f3bc faa9 b8bd 7bb1 89bd 3df2 5abd
00000180: 7216 40bd 159e 6e3d 8339 253d 2653 38bd
00000190: a048 0bbd 1ad9 933d 63e1 cdbd af77 89bd
000001a0: 2f4b 353d 2e70 d53b 92cc 0a3c 57eb 373d
000001b0: c4d7 1dbd 08e9 16bd 7431 d6bc efc9 b3bd
000001c0: c4e3 a63b 7da5 0f3c 8a52 d1bc 3e1d a63c
000001d0: 0b2a c93c fcfc b4bb 066e 5b3d cad6 8ebd
000001e0: 44f6 153d bf31 b43c ce59 43bd a9e8 7e3c
000001f0: c2f9 5dbd ac8c e7bd 43a0 2abd 7745 30bd
00000200: 61d1 40bb 5fb8 5c3c 5027 273d 771b 4e3d
00000210: 7e1d b0bd 2d5f 9cbd 3294 15bd f0c3 843c
00000220: e9bf 95bd 552a 813d b6c4 093d a964 093d
00000230: 544a b63b 4c1d c3bd 2340 3dbd 2d4d fdbc
00000240: 5521 02bb f8d9 a8bd 371c 0dbd 6ab2 9bbd
00000250: b357 fcbc 6043 403b c520 e43c 0c7e 82bd
00000260: 5ec4 153d 60ac b939 dc53 9dbd c27d afbd
00000270: c272 6cbd 86fc 4dbd 96a3 463b bb0c 3d3d
00000280: 0e94 30bd 5b79 6fbd bc21 0b3d 2e40 43bd
00000290: 52d7 2fbc 310a 473d 248b 8bbc e308 533d
000002a0: ff74 de3c 746b 90bd d598 283d 9365 cb3a
000002b0: c0bb 043d abd1 193d 5749 07bd a8e3 09bd
000002c0: d630 ba3c a90e 6bbd 8ae3 d93c 87a5 dc3c
000002d0: 98e9 00bd 8b64 a7bd 18fa 863d 7c6e 663d
000002e0: 31fb 35bd 1310 b93b 8aaa d23b c15f d9bc
000002f0: ba11 6a3b 8fad d5bd dce7 023e abd0 92bc
00000300: 549d c8bc 610e 9d3d 7742 b1bc b9b4 8f3c
00000310: 4a89 95bd 7007 8dbb 95e9 a73c 6cb9 d8bb
00000320: 868c e6bd fe73 47bd 60dc 8dbd 3b01 a63c
00000330: 24c3 5abd aa93 703b 7efd 713d 2714 2cbd
00000340: 5519 9a3d 7929 e03a 816d 5c3d 05f9 bd3c
00000350: fa37 ccbd 9305 22bc 67b2 873c feac 40bc
00000360: 2383 333d 09ba 67bd a415 683c cfb0 e63c
00000370: 81de a1bc 6954 febc 9a7c b5bd cfff 76bd
00000380: d473 123c ca61 dc3c 9239 89bd c59c febd
00000390: abcc d1bc 88f2 95bd 93fa f53c de37 d8bd
000003a0: 2728 573d b1f2 663c d7d4 9ebd 2334 fa3b
000003b0: caa5 90bd efe0 97bd 7867 9fbc abf2 a9bd
000003c0: 7f14 fd3c 0886 d9bc 7df3 c83c c2a2 713d
000003d0: b431 e2bd 0854 05be 54e3 79bc f351 22bd
000003e0: bbc4 883c 7a18 063c 3df2 fd3b 27ad 20bd
000003f0: 06c5 f3bc 832f db3a c147 c8bb 37ad c93c

sequential_6/conv2d_16/Conv2D f4 [64, 3, 3, 64]
0.03649565 -0.123930104 -0.038924534 0.015838144 0.102800764 -0.0539809 0.036440875 -0.0727486
-0.064626135 0.014151156 0.0027466295 -0.077104114 0.026937207 0.042817496 -0.033076957 0.027390035
0.058157064 -0.034222685 -0.010195118 0.0580905 0.13221048 0.10945196 0.06762379 -0.03726997
0.07365627 -0.15736188 -0.048313476 0.061043452 0.06850162 -0.0076581445 0.033083044 -0.04870065
-0.017510321 -0.043962605 0.02541492 -0.058719918 0.05710037 -0.073453926 -0.04887137 -0.01600633
0.03576297 0.086305544 0.04002364 0.14261806 0.035538852 0.009698159 -0.0077689965 -0.018388152
-0.04822342 -0.028553458 -0.054227423 -0.052988455 0.00651037 0.061965387 0.09792834 0.05679198
-0.032037638 -0.04172655 0.051814254 -0.02214622 -0.06760214 -0.0380917 0.047564168 0.06002883
0.0046925633 -0.160706 -0.047214113 0.018180566 0.08746238 -0.03307282 0.08448917 -0.0027156437
-0.03639571 -0.051081322 0.026729973 0.0038566175 -0.016171828 0.08132995 -0.0043054908 0.017871777
0.022328971 0.017611684 -0.022412946 0.0027424484 -0.020449571 0.11222345 0.08636902 -0.035445493
0.06578556 -0.076312296 0.077021256 -0.0600288 0.04682145 0.0774471 0.0051572802 0.076077126
-0.057858095 -0.047457386 -0.031005187 -0.08828027 0.05291797 0.013750935 0.006244521 0.022752054
-0.041136086 0.07211451 -0.025104059 -0.0020837921 -0.024381775 -0.04845264 0.10380039 -0.0017720178
-0.021722076 0.07734177 0.0052586687 0.10070919 0.047865525 -0.002979733 0.09761292 0.05158065
0.07774129 0.07113807 -0.0048686876 -0.073901996 0.0047793416 0.0427128 0.039673336 -0.04036021
-0.08614005 -0.14682439 -0.065896586 0.07097505 0.00759065 0.020887878 0.048471346 0.022640254
0.02075744 -0.012300898 0.100570284 -0.074216336 0.002938716 0.00923768 -0.034159373 -0.14417686
0.083144024 -0.041366592 0.09536322 0.07813647 0.014031852 0.01413294 -0.04207019 -0.0042213676
0.046543885 -0.100936405 0.031391494 -0.08386757 0.08777267 -0.031853057 -0.042707976 0.012760455
-0.063759916 0.009106067 -0.07542596 -0.066505454 0.060287975 0.022694178 -0.029354114 0.10021602
0.08429048 0.13837157 -0.029809618 0.088677175 0.02487026 -0.01647994 0.07892106 -0.03669235
0.0037369765 -0.016795801 -0.08586951 0.044700377 -0.025732374 -0.019857375 0.02222688 -0.029571049
0.036554735 0.025397856 0.034516547 -0.06436997 -0.021262692 -0.017339062 -0.012293369 0.061041743
-0.08329942 -0.07226914 -0.063582525 0.013444561 0.032310843 0.10609247 -0.0115577625 0.080554634
0.035557553 -0.020024931 0.050114557 0.025731636 -0.03806897 -0.023880607 -0.037581608 0.06817593
0.08627333 0.015250546 -0.019238267 -0.038427133 0.088070676 0.01674745 0.11034356 0.05114864
0.014890241 -0.08416847 0.012105147 0.027932525 0.03228799 0.10045162 -0.056989722 -0.06336119
-0.041955397 0.056175724 -0.07991979 -0.0005055418 0.014940746 -0.04797643 -0.020800408 0.020769471
0.09102971 0.033617567 -0.017691512 0.0936623 -0.12453658 0.03674649 -0.07229463 -0.038852297
0.07200653 0.059737694 0.03242428 -0.054474905 0.018697618 -0.0044790856 0.030311614 0.052423365
0.11072634 -0.04673458 0.075143084 -0.0038035044 -0.087855086 0.01635602 -0.024982221 -0.014533575
00000000: 767c 153d 11cf fdbd 556f 1fbd ffbe 813c
00000010: 3589 d23d 141b 5dbd 0743 153d 38fd 94bd
00000020: b55a 84bd 40da 673c cc00 343b c3e8 9dbd
00000030: 6bab dc3c 6661 2f3d b47b 07bd 1161 e03c
00000040: 1a36 6e3d 162d 0cbd 6d09 27bc 4ef0 6d3d
00000050: 2f62 073e 5928 e03d 577e 8a3d 65a8 18bd
00000060: 19d9 963d 7923 21be 5ae4 45bd b308 7a3d
00000070: 944a 8c3d 2cf1 fabb 1682 073d 557a 47bd
00000080: ce71 8fbc 2212 34bd f332 d03c 4c84 70bd
00000090: 14e2 693d 036f 96bd 582d 48bd b51f 83bc
000000a0: 317c 123d f6c0 b03d d4ef 233d 780a 123e
000000b0: 3091 113d 07e5 1e3c 1193 febb c0a2 96bc
000000c0: ec85 45bd f1e8 e9bc 931d 5ebd 6c0a 59bd
000000d0: f154 d53b 6bcf 7d3d a78e c83d b59e 683d
000000e0: e639 03bd 75e9 2abd 2f3b 543d fd6b b5bc
000000f0: fe72 8abd 0b06 1cbd a5d2 423d cae0 753d
00000100: 13c4 993b 1d90 24be 9663 41bd 69ef 943c
00000110: 7a1f b33d 5e77 07bd a808 ad3d f1f8 31bb
00000120: ab13 15bd a63a 51bd d1f8 da3c 4ebf 7c3b
00000130: c87a 84bc 5190 a63d 1315 8dbb d567 923c
00000140: 3feb b63c 6146 903c 5b9b b7bc a6ba 333b
00000150: dc85 a7bc 68d5 e53d 3ee2 b03d 4b2f 11bd
00000160: 94ba 863d 9f49 9cbd 52bd 9d3d c2e0 75bd
00000170: d9c7 3f3d 969c 9e3d 67fe a83b 53ce 9b3d
00000180: 9cfc 6cbd ad62 42bd 97fe fdbc 49cc b4bd
00000190: 83c0 583d 9a4b 613c d79e cc3b 8462 ba3c
000001a0: 507e 28bd c6b0 933d 07a7 cdbc 3b90 08bb
000001b0: 4abc c7bc 4776 46bd 4d95 d43d 0d43 e8ba
000001c0: 7ff2 b1bc 5d65 9e3d e950 ac3b 9f40 ce3d
000001d0: a40e 443d a047 43bb 48e9 c73d 3b46 533d
000001e0: d336 9f3d d6b0 913d 8389 9fbb ee59 97bd
000001f0: 069c 9c3b 9ef3 2e3d 8280 223d bf50 25bd
00000200: 326a b0bd 2259 16be caf4 86bd 5e5b 913d
00000210: fdba f83b 0e1d ab3c e489 463d 0e78 b93c
00000220: 820b aa3c b589 49bc cbf7 cd3d bcfe 97bd
00000230: 7997 403b a359 173c b3ea 0bbd 19a3 13be
00000240: 6a47 aa3d 0470 29bd cb4d c33d 0306 a03d
00000250: dae5 653c d98d 673c cb51 2cbd 6653 8abb
00000260: cda4 3e3d bfb7 cebd 5e94 003d c3c2 abbd
00000270: 28c2 b33d 5a78 02bd 8fee 2ebd 3a11 513c
00000280: 8f94 82bd 9d31 153c ed78 9abd 0334 88bd
00000290: 86f0 763d 24e9 b93c 0a78 f0bc 0f3e cd3d
000002a0: 7da0 ac3d 47b1 0d3e 4d33 f4bc 619c b53d
000002b0: b7bc cb3c f000 87bc 5da1 a13d b84a 16bd
000002c0: 10e8 743b 5997 89bc 5bdc afbd be17 373d
000002d0: b3cc d2bc efab a2bc 2515 b63c fc3e f2bc
000002e0: 6bba 153d 2a0f d03c 3961 0d3d 67d4 83bd
000002f0: 192f aebc a60a 8ebc 206a 49bc e806 7a3d
00000300: e398 aabd d801 94bd 8e37 82bd 9346 5c3c
00000310: 6058 043d 0247 d93d c55c 3dbc d4f9 a43d
00000320: cca4 113d 530b a4bc ec44 4d3d 27cb d23c
00000330: 35ee 1bbd 43a1 c3bc 2cef 19bd d29f 8b3d
00000340: 12b0 b03d 6ddd 793c 9299 9dbc c565 1dbd
00000350: 665e b43d f331 893c cefb e13d 3d81 513d
00000360: 33f6 733c 8560 acbd ab54 463c c0d2 e43c
00000370: 6940 043d 94b9 cd3d 0e6e 69bd 83c3 81bd
00000380: 6cd9 2bbd 8418 663d fdac a3bd 5686 04ba
00000390: 08ca 743c ef82 44bd 9e65 aabc bd24 aa3c
000003a0: c96d ba3d 93b2 093d caed 90bc 05d2 bf3d
000003b0: 090d ffbd 7d83 163d 350f 94bd 9623 1fbd
000003c0: 2978 933d 83af 743d 52cf 043d 1421 5fbd
000003d0: bf2b 993c 4bc5 92bb 1050 f83c e2b9 563d
000003e0: 7ec4 e23d c26c 3fbd 9ee4 993d 3744 79bb
000003f0: 5eed b3bd 0ffd 853c 84a7 ccbc 3b1e 6ebc

sequential_6/conv2d_17/Conv2D f4 [64, 3, 3, 64]
-0.08157989 0.06516494 -0.032093164 0.0038594978 0.04660895 -0.043801542 -0.053095777 -0.057706833
0.014911429 -0.07429945 -0.0493804 -0.009817732 -0.08766 -0.048663665 0.04059792 -0.01707277
-0.0010162332 0.02514374 0.040743828 0.024108905 -0.012531117 -0.06970067 0.000385137 -0.05099324
-0.02357936 -0.009793267 -0.04310464 -0.03454127 0.060074534 -0.05386801 -0.0026134138 -0.069472685
-0.052665863 -0.034583796 0.003767075 -0.021788476 -0.043903407 0.012851269 0.06785702 -0.091918126
-0.06457901 -0.0019419747 -0.00448434 -0.0073493943 0.05890281 0.019454475 -0.016334198 -0.05461497
-0.037282456 0.06787977 0.004268537 -0.009687651 -0.093736306 -0.025066452 -0.035421014 0.028006816
-0.0028666377 -0.015082367 -0.027085979 -0.053874843 0.02881401 -0.04548224 -0.029263774 -0.0664309
-0.09367627 -0.05641189 0.021793747 0.05814224 -0.039082874 0.030867733 -0.07279986 0.010545169
-0.0070277653 -0.01939755 -0.09481759 -0.008309794 0.036870413 0.060274255 -0.005234455 -0.08606249
-0.01255006 -0.03554869 -0.0055751945 -0.080276825 -0.057333555 -0.06275919 0.051387355 0.008761666
0.015623352 -0.056613468 -0.021596445 0.05984004 0.0023194784 0.016793245 -0.028353328 -0.008107003
0.011888522 0.01695455 0.010207207 -0.078128345 0.03133605 0.051185403 0.046326157 -0.08403987
0.038877208 -0.07746343 0.06699903 -0.04597357 -0.071866155 -0.019908624 -0.072373465 0.0044057462
0.056174845 0.0067510856 0.051274583 0.0051348032 -0.06889131 0.059157223 -0.04199108 0.037190497
-0.08820465 0.014010774 0.03785256 -0.040435746 -0.09936177 -0.0395526 -0.045712315 -0.008803077
0.042358827 -0.036950555 -0.03439912 -0.055836998 -0.039373003 0.026157448 -0.07188602 -0.036683846
-0.007766975 -0.09956772 -0.08765204 -0.010998262 -0.05851106 -0.011864978 0.059229568 0.025019161
-0.04927937 0.043870054 -0.098671265 -0.0034844147 0.047841463 -0.07732473 0.01968033 -0.057565015
0.04908041 -0.045882467 0.032368064 0.033109613 0.019707194 0.0020061624 -0.014171154 0.046196245
0.03344005 0.037524343 -0.029492453 0.017411783 -0.038310755 0.036210258 -0.039026156 -0.042126134
-0.077002786 -0.004551449 0.03691485 -0.027229644 -0.00050615065 -0.04611115 -0.013873088 -0.0075229276
0.034646817 0.0016242267 -0.07759097 0.052049745 0.044496704 0.023288481 -0.081963696 -0.015256813
0.01232759 -0.07968501 0.02507642 0.041876934 -0.059156716 0.06297544 -0.042545673 -0.048305195
-0.08284573 0.0073469114 0.014786544 0.063040264 0.065089054 0.025338376 0.018287944 0.0012024108
0.0046114568 0.030872105 -0.03486254 -0.038158033 -0.015360916 0.057373554 0.0589793 0.0047265333
-0.0405773 0.01449601 -0.07198443 -0.032676302 0.055889 -0.092795305 0.05290512 0.04449728
0.01222668 -0.06335641 -0.07010588 -0.05085777 -0.07216726 -0.009273676 0.07524932 0.038090833
-0.013222522 0.011132596 -0.04938618 0.05281746 0.032636285 -0.07386683 0.03708215 0.029736962
0.06759958 -0.019614803 -0.0840691 0.022135004 -0.014221972 -0.037883583 -0.079641946 0.046981506
0.03907557 -0.0341195 -0.03245704 0.028833771 -0.055215277 0.017793711 0.0320046 0.011994216
-0.07411207 0.030210672 0.021729201 -0.039320916 -0.08496132 0.06459289 -0.002040646 -0.0013590342
00000000: 5b13 a7bd 3275 853d 1f74 03bd a1ef 7c3b
00000010: 07e9 3e3d 3f69 33bd f57a 59bd 005e 6cbd
00000020: 114f 743c 4f2a 98bd 1a43 4abd 8dda 20bc
00000030: 1687 b3bd 8d53 47bd 014a 263d 32dc 8bbc
00000040: 2133 85ba 3ffa cd3c 00e3 263d 0a80 c53c
00000050: 504f 4dbc 3abf 8ebd 37ec c939 4ade 50bd
00000060: 8129 c1bc f073 20bc 7e8e 30bd 267b 0dbd
00000070: b710 763d b4a4 5cbd cf45 2bbb b247 8ebd
00000080: 29b8 57bd bda7 0dbd 08e1 763b bf7d b2bc
00000090: 0fd4 33bd 218e 523c 9ff8 8a3d 923f bcbd
000000a0: 0042 84bd dc89 feba 5ff1 92bb 30d3 f0bb
000000b0: 1344 713d fe5e 9f3c 4ccf 85bc f2b3 5fbd
000000c0: 7db5 18bd 8d04 8b3d 15df 8b3b f4b8 1ebc
000000d0: d2f8 bfbd 2958 cdbc a015 11bd 8d6e e53c
000000e0: 33de 3bbb 081c 77bc 6ae3 ddbc deab 5cbd
000000f0: 5c0b ec3c 964b 3abd 95ba efbc ec0c 88bd
00000100: 58d9 bfbd 2710 67bd cd88 b23c 8f26 6e3d
00000110: 5d15 20bd 54de fc3c 1818 95bd a5c5 2c3c
00000120: 2b49 e6bb 9ce7 9ebc ba2f c2bd cd25 08bc
00000130: 6e05 173d 23e2 763d cb85 abbb 8841 b0bd
00000140: c49e 4dbc 819b 11bd 1fb0 b6bb 2d68 a4bd
00000150: 97d6 6abd e487 80bd 8c7b 523d 178d 0f3c
00000160: 16f9 7f3c 86e3 67bd 07eb b0bc d41a 753d
00000170: 6402 183b fd91 893c 3d45 e8bc 3cd3 04bc
00000180: 13c8 423c 45e4 8a3c 213c 273c c101 a0bd
00000190: 3b5a 003d c9a7 513d 7fc0 3d3d 181d acbd
000001a0: b53d 1f3d 26a5 9ebd ca36 893d c84e 3cbd
000001b0: 902e 93bd 6917 a3bc 8a38 94bd 145e 903b
000001c0: 9817 663d 3638 dd3b 4c05 523d da41 a83b
000001d0: e316 8dbd d84e 723d d7fe 2bbd 1055 183d
000001e0: a4a4 b4bd 728d 653c 490b 1b3d f49f 25bd
000001f0: 2f7e cbbd e801 22bd d63c 3bbd c83a 10bc
00000200: 7380 2d3d 7759 17bd 17e6 0cbd 56b5 64bd
00000210: 9645 21bd 2548 d63c fa38 93bd cd41 16bd
00000220: 1c82 febb 29ea cbbd ea82 b3bd 0e32 34bc
00000230: 4ba9 6fbd 5365 42bc b49a 723d fcf4 cc3c
00000240: 2ad9 49bd 16b1 333d 2914 cabd c75a 64bb
00000250: 69f5 433d 6e5c 9ebd a538 a13c 4bc9 6bbd
00000260: 8a08 493d 41ef 3bbd 6094 043d f29d 073d
00000270: fb70 a13c d279 033b 212e 68bc 4638 3d3d
00000280: 6ff8 083d 20b3 193d 289a f1bc 28a3 8e3c
00000290: bdeb 1cbd 3551 143d e4d9 1fbd 748c 2cbd
000002a0: a3b3 9dbd 5224 95bb 0734 173d b410 dfbc
000002b0: 32af 04ba 0cdf 3cbd f34b 63bc e482 f6bb
000002c0: d2e9 0d3d 01e4 d43a 04e8 9ebd 1d32 553d
000002d0: 2d42 363d 7cc7 be3c 95dc a7bd b6f7 79bc
000002e0: a9f9 493c e531 a3bd 106d cd3c 2687 2b3d
000002f0: 504e 72bd 44f9 803d 5f44 2ebd abdb 45bd
00000300: 06ab a9bd 5cbe f03b 4343 723c 411b 813d
00000310: 694d 853d 6d92 cf3c 99d0 953c 369a 9d3a
00000320: b41b 973b 7fe7 fc3c 06cc 0ebd 994b 1cbd
00000330: 5aac 7bbc 8800 6b3d 4794 713d 09e1 9a3b
00000340: 6234 26bd ac80 6d3c 936c 93bd 96d7 05bd
00000350: ddeb 643d 770b bebd 0ab3 583d c842 363d
00000360: 6a52 483c 01c1 81bd ac93 8fbd 3d50 50bd
00000370: 6ecc 93bd 9ef0 17bc 511c 9a3d 2205 1c3d
00000380: 47a3 58bc 7e65 363c 2a49 4abd 1f57 583d
00000390: a0ad 053d 7e47 97bd 74e3 173d ee9a f33c
000003a0: a671 8a3d 39af a0bc 6c2c acbd 7854 b53c
000003b0: 4603 69bc d12b 1bbd 511b a3bd ae6f 403d
000003c0: b40d 203d e4c0 0bbd acf1 04bd cd34 ec3c
000003d0: 6a29 62bd 1ec4 913c 4117 033d 6383 443c
000003e0: 12c8 97bd 5f7c f73c 7001 b23c f80e 21bd
000003f0: 3300 aebd 4749 843d 5cbc 05bb 9f21 b2ba

sequential_6/dense_5/BiasAdd/ReadVariableOp f4 [3]
0.078813024 -0.06681072 -0.022714268
00000000: b968 a13d 0fd4 88bd 4613 babc

sequential_6/dense_4/BiasAdd/ReadVariableOp f4 [64]
-0.02104708 0.011490238 -0.06134833 0.07459263 -0.074643716 0.071435206 -0.048311315 -0.0074260933
0.07659366 0.05333719 -0.01668661 0.11513779 -0.016272515 0.018399838 -0.027658433 -0.016013065
0.02823628 -0.050485987 -0.06876801 -0.025165772 -0.02509179 -0.015209581 0.0555183 -0.01790042
-0.016776878 -0.04571283 -0.011252332 0.07325756 -0.05925858 -0.01737201 0.08733564 -0.012354955
0.043919317 -0.06087604 0.015255456 -0.027883234 -0.009727305 -0.045783874 0.096756294 -0.031169802
0.071112566 0.01553079 -0.051843252 0.0858636 0.04116645 0.00034289004 -0.040558614 -0.06741535
-0.016782654 -0.042585693 0.04466837 0.07075529 -0.010984264 0.07285006 -0.06900636 0.039194643
0.03776354 -0.021221366 -0.039037004 -0.05222967 -0.0451612 -0.019963361 0.033618648 -0.017415492
00000000: ed6a acbc 8d41 3c3c 6348 7bbd 05c4 983d
00000010: cede 98bd 9f4c 923d 16e2 45bd 9656 f3bb
00000020: 23dd 9c3d 1978 5a3d 5cb2 88bc 5dcd eb3d
00000030: f04d 85bc 42bb 963c f093 e2bc d52d 83bc
00000040: c54f e73c 65ca 4ebd 3ed6 8cbd 7328 cebc
00000050: 4c8d cdbc 9b31 79bc 2867 633d e7a3 92bc
00000060: aa6f 89bc 603d 3bbd b35b 38bc 0f08 963d
00000070: 20b9 72bd bf4f 8ebc 07dd b23d 706c 4abc
00000080: bee4 333d 2859 79bd 05f2 793c 616b e4bc
00000090: 465f 1fbc df87 3bbd 2a28 c63d d057 ffbc
000000a0: 77a3 913d db74 7e3c 9759 54bd 41d9 af3d
000000b0: 279e 283d ecc5 b339 ca20 26bd 0f11 8abd
000000c0: c77b 89bc 566e 2ebd 2ef6 363d 26e8 903d
000000d0: 58f7 33bc 6a32 953d 3553 8dbd 908a 203d
000000e0: f1ad 1a3d 6ed8 adbc 44e5 1fbd c7ee 55bd
000000f0: f3fa 38bd 348a a3bc b5b3 093d efaa 8ebc
