Plant_Disease.tflite (tflite, 741652 bytes, 16 tensors)

sequential_3/conv2d_18/BiasAdd/ReadVariableOp f4 [32]
00000000: 969f 773d 85fe 783b 0dba a7bb a604 8cbb
00000010: 42c9 9abb a05f c93a a839 17bd 98e8 ffbc
00000020: c257 2a3c 31be 7d3c 0d83 f1bc 32cc f23c
00000030: 7183 86bc 5d00 5a3c 8f67 a5bc f40b 5ebc
00000040: 3e1e 27bc 0e1d 0f3d 5f87 8abd 1d73 c73a
00000050: 2359 6c3d 450d 5a3c 8753 5b3d ac16 603d
00000060: aa88 943d 3eee 93bd fa88 1abd c5db a2bd
00000070: 8c63 bc3d 9683 323c d7cf 0c3c e5f8 8cbb
0.060454927 0.0037993502 -0.0051186145 -0.004273015 -0.004723699 0.0015363581 -0.03692022 -0.031238839
0.0103969 0.01548724 -0.029481435 0.029638384 -0.016420098 0.013305751 -0.020190982 -0.013552655
-0.010200081 0.034939818 -0.06764101 0.0015216802 0.057702195 0.013308828 0.053546455 0.05470912
0.07252629 -0.072231755 -0.037728287 -0.07952074 0.091986746 0.01089563 0.008594475 -0.0043021315

sequential_3/conv2d_19/BiasAdd/ReadVariableOp f4 [64]
00000000: 54dc c4bc 8cb7 333c 8129 36bd 1ecc 9a3c
00000010: 96ca 853c 5ed1 7dbd 1876 7fbb 8f91 1bbd
00000020: 0d2b 08bd f0fb 9dbc f1b1 423c 15d7 83bd
00000030: 1a96 28bd 8ede 973c b2d4 a2bd a4e4 f8bc
00000040: fff0 35bd 3823 40bc 593c 35bd 1548 2dbd
00000050: 7fc9 29bb d511 c8bc c65a 08bc ee54 5ebd
00000060: 0472 48bc 6043 073d d61e c4bc 4b07 383c
00000070: 4823 07bd 5bb9 28bd 4aef edbc 79d6 2fbd
00000080: 0e6f 44bd d58c c6bc 63ab 5fbd 22c1 ed3d
00000090: 523b 47bd bf1d 5d3d e2ce ee3b f762 0ebc
000000a0: 3b49 183d 76be c23d 8945 8cbd 3224 753c
000000b0: 3437 0dbd da3f b2bc 0411 51bc 2c47 19bd
000000c0: d32f 7abd f204 b0bb 6bf9 753b 850b e0bc
000000d0: f1fa a8bc e2bd 15bd f0a5 8dbc 9655 2bbd
000000e0: 3282 c6bd 9967 b93d 190a db3b 5d00 debc
000000f0: d817 eebc ece5 cfbc ff9e febc 1b91 15bd
-0.024030842 0.010969054 -0.044473175 0.018896159 0.016331952 -0.061967246 -0.0038980301 -0.037980612
-0.03324418 -0.019285172 0.011883245 -0.06437508 -0.041158773 0.01853874 -0.07950725 -0.030382462
-0.044419285 -0.011727147 -0.044247005 -0.04230507 -0.0025907455 -0.024422565 -0.008322423 -0.054280214
-0.012234215 0.03302324 -0.023940485 0.0112322075 -0.03299263 -0.041192394 -0.029044766 -0.042929146
-0.047957473 -0.024237076 -0.054606806 0.11609103 -0.048640557 0.053983446 0.007287846 -0.008690587
0.037179213 0.09508984 -0.068492 0.014962243 -0.034476474 -0.021758962 -0.0127604045 -0.03742139
-0.061080765 -0.0053716833 0.0037532698 -0.027349243 -0.02062747 -0.03655804 -0.01729104 -0.041829668
-0.096928015 0.09052963 0.0066845533 -0.027099783 -0.029064104 -0.02537819 -0.031081675 -0.036515336

sequential_3/conv2d_20/BiasAdd/ReadVariableOp f4 [64]
00000000: 6505 c8bb 5338 89bd 4e74 35bd 0bb4 a23a
00000010: cd72 95bd d1b7 8cbd 073d 0cbd 696c 9ebd
00000020: 2b00 6f3d a18f 67bd 1351 6e3c 273e 773d
00000030: 235a ecbc c8b1 f2bc 6762 0bbd 3c96 1ebd
00000040: be57 c3bc 233d 7ebd 3c4e 8abd 4b2c ccbc
00000050: d1fe febc dff4 bebc 5d54 8cbc a01f e2bd
00000060: 187d eabc 49e3 11bb 2412 6d3c 583e babd
00000070: da69 48bd 1e55 85bd f8a0 e83d 861c 8bbd
00000080: 9631 0abd 77d1 e2bd 07fc 07bd d420 7a3d
00000090: 2abc 01bd 19e9 4dbd 791d dcbc 1e8a dbbc
000000a0: cb13 25bd e013 abbd a958 113c 5067 a4bd
000000b0: fb71 63bd 824d 2bbc 7907 97bd aeff bebc
000000c0: 9db9 11bc d160 d33b 2f44 2dbd 45d1 e5bc
000000d0: a346 b9bc cdba 1abd 5446 5ebc 5737 00bd
000000e0: 6d3c dfbd 9144 c3bc c76e d4bc 4e4f 74bd
000000f0: 5382 18bd 136c 19bc 16fb 12bd 0712 f4bc
-0.0061041587 -0.06700196 -0.04430037 0.0012413276 -0.07297287 -0.06870998 -0.034237888 -0.07735521
0.05834977 -0.05653346 0.014545697 0.060362007 -0.028851574 -0.029625788 -0.03402939 -0.038717493
-0.02384555 -0.062070023 -0.06753203 -0.024923464 -0.031127365 -0.023310123 -0.017130071 -0.11041188
-0.028624102 -0.0022260717 0.014469657 -0.090939224 -0.048929073 -0.065103754 0.11358827 -0.0679255
-0.033738695 -0.110751085 -0.033199336 0.061066464 -0.031673588 -0.050271127 -0.026869522 -0.026799258
-0.04030208 -0.083534 0.008871236 -0.08027518 -0.055528622 -0.010455491 -0.07374472 -0.023315277
-0.008894351 0.0064507504 -0.042301353 -0.028053889 -0.02261669 -0.037775803 -0.013566572 -0.031302776
-0.10900197 -0.023836406 -0.025931729 -0.059645943 -0.03723366 -0.009364146 -0.035883985 -0.029793752

sequential_3/conv2d_21/BiasAdd/ReadVariableOp f4 [64]
00000000: 4fde 2dbd 5663 adbd 2ca7 083c db4c 12bd
00000010: f6df 61bc 7d2f b8bd 553e d73c 9191 c5bc
00000020: c4c3 ed3c 092a 4ebd 321e e7bc de03 29bd
00000030: b217 7bbd a925 563d b376 c0bd f652 c73c
00000040: dd35 d93d 957e 10bd 6f42 193c c13b 20bd
00000050: ed76 17be 174c c4bc c6e6 1cbd 0c0e a0bd
00000060: 6b42 e3bd 6c6b 00bd be8a 76bd 1731 acbd
00000070: a811 bdbc f5a0 28bd 3c59 3cbc 2a17 01bd
00000080: ba42 933b 6114 133d 86f7 1cbd 22bb b5bb
00000090: f924 07bd 4546 14be 170b 34bd c71b 46bd
000000a0: 46c0 d1bc fc69 b8bc 016c 81bc e7cc 20bd
000000b0: 2cf3 7c3d b0aa 45bd 631a 06be b11c 013d
000000c0: c416 b1bd 2f9b 4b3d e942 19bd c1fd 45bd
000000d0: 96ae 30bc 1daa bdbc e422 dabc a5dd b73c
000000e0: b76f bb3c 04f2 71bd 1f0b febc c7f4 da3c
000000f0: 0372 fdbd 386a 73ba 8ec8 cebc abd0 96bd
-0.042448338 -0.084662125 0.008340638 -0.035717826 -0.013786307 -0.08993433 0.02627484 -0.024117263
0.029024012 -0.050333057 -0.02821264 -0.041263454 -0.061301894 0.05228201 -0.0939764 0.024331551
0.10605977 -0.035276968 0.009354218 -0.039119486 -0.1479146 -0.023962064 -0.03830602 -0.07815179
-0.110966526 -0.031352445 -0.06019091 -0.08407801 -0.023079708 -0.041169126 -0.0114958845 -0.03151623
0.0044940384 0.035908107 -0.038321994 -0.0055459896 -0.032994244 -0.1447993 -0.04395589 -0.048366334
-0.025604378 -0.022511475 -0.01579857 -0.03925791 0.061755344 -0.048258483 -0.13096003 0.031521503
-0.0864692 0.04970854 -0.037417326 -0.0483377 -0.010783812 -0.023152405 -0.026627965 0.022444556
0.022880418 -0.059068695 -0.031011162 0.026728047 -0.12375262 -0.0009285542 -0.025242116 -0.07364019

sequential_3/conv2d_22/BiasAdd/ReadVariableOp f4 [64]
00000000: 6acd bd3c 2df6 31bc fc6a 2abd e4bd 353d
00000010: 661d d03b 1623 b43c 71e3 5b3d fc69 d03d
00000020: 69ae ee3b 9501 9ebd f714 283d f597 eebd
00000030: 4341 63bd 4020 e1bd aa1e 4b3e e112 2ebd
00000040: fda8 bfbc 4c31 cfbd 4d87 94bc da8d 5dbd
00000050: 0156 a0bd 47ec 9dbd 00a7 c7ba 33eb 8bbd
00000060: 1394 9c3d 1f39 963c 0b5f 8b3d 8c14 883d
00000070: 19fe 58bd 251c b4bd bab0 923d 4c9e 663d
00000080: f7b6 dcbc a53d 5abd 087a 873d 54ed 84bd
00000090: a69f 1fbc d6a6 bbbc ff75 143d a48d 773d
000000a0: c240 a2bd 582e 483d 640f 513d 24e9 b23a
000000b0: 5323 08bd cafb fd3d f58f 82bc d97a 5bbe
000000c0: 3b90 5abd 6715 633d f586 b6bd 6d5c dabc
000000d0: 05bd a93b 70ba 85bd 07f5 61bd f16e 88bc
000000e0: 2819 4c3d bbfb f7bc 483c 31bd 2eeb 51bd
000000f0: d59b 613d bfaf c5bc be98 d3bd 6ebf 85bb
0.023169238 -0.010861916 -0.041605935 0.044370547 0.006351161 0.021989387 0.053683702 0.10176465
0.007283975 -0.077151455 0.04103562 -0.11650077 -0.05548216 -0.10992479 0.19835916 -0.042498473
-0.02339601 -0.101168245 -0.018130923 -0.05409036 -0.07828904 -0.07711082 -0.0015232265 -0.0683197
0.076454304 0.018337784 0.068052374 0.06644544 -0.0529767 -0.08794431 0.07162614 0.056303307
-0.026942713 -0.053281445 0.066150725 -0.06490579 -0.009742653 -0.022906702 0.036245342 0.060437813
-0.07922508 0.04887232 0.05104007 0.0013649804 -0.033236813 0.124015406 -0.015937785 -0.21433581
-0.053360205 0.055440333 -0.0891246 -0.0266554 0.0051800036 -0.06529701 -0.055165317 -0.016654463
0.04982868 -0.030271402 -0.04327038 -0.051249675 0.055080254 -0.024131654 -0.10331868 -0.004081658

sequential_3/conv2d_23/BiasAdd/ReadVariableOp f4 [64]
00000000: 3983 a5bb e182 f43c 187c 8fbd e922 683d
00000010: 2c45 283d e548 b4bc 24ee bdbc 0c4d 183d
00000020: 142c 443d adaa 29bd e575 af3c 7c4a afbb
00000030: 2cd4 cfbc 2914 cabc 220c 983d 2924 1f3d
00000040: 8618 b23d e9e7 1c3e afaf b0bd cbde 073e
00000050: 9871 9c3d 8b8b 49bd 696d de3b 7d04 d5bc
00000060: 07b6 fa3d a402 14bd a0d0 7ebb d37b 9dbd
00000070: f72d 30bd 73d5 2abd 7596 48bd 4bdc 8ebd
00000080: 38cc c7bc 4902 13bc 3b51 e63d a538 68bd
00000090: 3ead 5cbc 4d45 e63b 5adf c23c 4813 09be
000000a0: 3080 24bd 1f94 123c 3ee7 05bd 09b2 5b3d
000000b0: 5925 8ebd fa07 65bd 2669 e13d 397f b2bd
000000c0: c914 3fbc 2cfe 7cbc 808c e5bc b6c7 39bd
000000d0: b1dc b73d 1c6e 0cbd 06d3 f9bc 7eb5 3fbc
000000e0: 7e42 f2bb 0066 b4bd 4ddf 6ebc f49e dd3d
000000f0: 76dd 50bd f320 eebc 2d11 7cbd 441a c43d
-0.0050510434 0.029847564 -0.07006091 0.056673918 0.041081592 -0.022007415 -0.023184843 0.037182853
0.0478936 -0.041422535 0.021418521 -0.0053494554 -0.025369726 -0.024667816 0.07424189 0.038852844
0.08696084 0.15322842 -0.08627259 0.13268583 0.07638854 -0.049205344 0.006787945 -0.026003117
0.1224175 -0.03613533 -0.0038881674 -0.07689633 -0.043012585 -0.041707467 -0.048971612 -0.06975611
-0.024389371 -0.008972713 0.11245962 -0.056694645 -0.0134690385 0.0070273043 0.023788143 -0.13386261
-0.04016131 0.008946448 -0.032691233 0.053636584 -0.06940717 -0.05591581 0.110063836 -0.08715672
-0.01166267 -0.015441459 -0.028021097 -0.045356475 0.089776404 -0.034284696 -0.030496132 -0.011700986
-0.0073931804 -0.088085175 -0.014579606 0.108213335 -0.05099245 -0.029068446 -0.061539818 0.09575322

sequential_3/conv2d_18/Conv2D f4 [32, 3, 3, 3]
00000000: 5903 4dbe 095d d3bd 58ac 85be 60d4 3ebe
00000010: e88f 09be 7095 c7bc 3053 933d 080e b1bd
00000020: 6e0f 81bd 247b 80bc df99 6fbe 8246 67be
00000030: 9259 aebc 09b7 bdbd de75 1cbe 28c3 47bd
00000040: 6c42 afbd aa14 43be 6177 3dbd 03a3 6abe
00000050: 3178 9abe 0890 e3bd 11d6 60be e81b 39be
00000060: 5987 fabd 9bec 95be 5f9e a3be 2b84 01bc
00000070: c8c3 173d d1e9 c63c e63a c4bd c53e 8e3c
00000080: 3faf d23d dbc1 2abe c467 35be 14bb 0a3e
00000090: 9e39 643c 7f5e c5bd 8ac5 b83d 7c8f fcbb
000000a0: 0fb3 41bd 38f3 cd3d c1f1 d43d 139c ac3d
000000b0: 6653 87bd 9099 4e3d d2f5 80bd 12aa 033e
000000c0: c216 6cbd 646f 503a be16 59bd 690e 07be
000000d0: e0bb cdbd d7eb 123d 085a 53bc 5448 35bc
000000e0: e8d2 e33d 012a 0abe c9bc fabd 9ea2 13be
000000f0: 0a44 1ebe 7222 8eb9 741d 1ebc 652c 1ebd
00000100: 93f2 b23d 4fb4 43bd 14bb 95bd bc30 d63d
00000110: a39e a7bb 15ed d5bd df74 fabd cd29 febb
00000120: 0807 8bbd 0042 2d3e 28e2 0a3e a0ca 5bbd
00000130: 59d2 f93c c3ed 173e 59a1 053e 7fa7 003d
00000140: ac9f 75bd f222 12be 7302 16be ea91 55be
00000150: cb70 d63d e19d 443d b760 6a3d b919 c93c
00000160: dcb4 f0bc c88d f73d e7db 05be 9eb4 6dbc
00000170: 35de 04bc 8d94 693c ceb6 79bd 7829 62bc
00000180: 6077 85bc 898d 0fbe ad79 de3d 24e8 25be
00000190: 65e4 82bd 2845 53be f569 9cbc 71a0 9d3d
000001a0: 78e1 62bc 970b da3d ef68 0dbc bf43 07be
000001b0: 7684 373d 739e aa3d d953 283e f63a b73d
000001c0: 79e8 833d 8316 e43d bc9b 59bd 03f8 03be
000001d0: 7e9a bf3d ba84 bbbc ed95 543d 4fc6 1d3e
000001e0: 53d2 b0bc 4233 acbd e533 31bd 726c b1bd
000001f0: 46a6 0ebe ad85 043e b993 f8bd ce37 a3bd
00000200: 2ef6 363d 214b 9dbb 46a3 33bd 05b6 bfbd
00000210: 621d a5bd d6f6 0cbd 7e5d a5bd 89bd 35be
00000220: 182c b3bd 6a92 e4bd 1ff0 00bd ff61 8cbe
00000230: 934f f0bd 2037 943d 949b cabd 1b7c b43d
00000240: edad 063e 9123 6dbd e86f f63d 4232 2e3d
00000250: 3a9f 2fbe 9409 673d 85ae 1b3e 4aa5 c7bd
00000260: 2567 113e 371f 2fbd e556 803d 0fce 083d
00000270: a09f c13d 540d 10bd 2cfb aabc 541e b53d
00000280: 21b4 4c3b 9d28 a3bd 2952 003e a8af 62bd
00000290: b7ed 25be 4868 b9bb b779 e73c 8459 02bc
000002a0: 6072 efbc 757e fabd 9536 e9bc 18a3 ae3c
000002b0: 8fee 513d 2bc0 40bd e851 213e a6f9 3abe
000002c0: 3887 d03d a6ef eb3d 6f21 533d 4438 973d
000002d0: 0c5b 213e 1449 4dbd d90d c23d f66d 84bc
000002e0: 7477 96bd b1f8 c43d 0a36 033e 69cc 213c
000002f0: 57f4 0cbe dc1f 8abd 3856 a3bd 5ac3 4fbd
00000300: d1d9 d93d c07b b4bd 1518 edbc 8255 c43d
00000310: a300 7a3d 2cb5 293c 9b3a 3b3d c947 bf3d
00000320: a335 57bd 285c f4bd 6171 3f3c 532f d13d
00000330: 6dd3 ff3d 4b1e 03be 020e 05be aebf ba3d
00000340: 0125 4fbb b8e0 4c3c 1b1b 5dbd 4848 9abd
00000350: 1bf3 29be b10c 743d 09fd 09bd 5066 1c3d
00000360: 6889 513d 4276 693d 6ba2 cfbd 7acb c53d
00000370: 33c6 1abd 82dc c6bd 9e6a 253e ff07 dc3d
00000380: fead efbd 536e 213e 91c1 9b3d 69e7 dabd
00000390: b3b4 603d 4f4a e83d 2682 c4bd 1903 a73d
000003a0: c811 b6bd 3242 07be c57a a3bd 1db9 36bd
000003b0: a4be 0ebe 0d4d 3bbd 6668 76bd d5a5 ca3d
000003c0: 13b6 2f3c 33a2 a43c e2af 62bd 33dd b8bd
000003d0: 1b4a 003b 7e1b 013e 3c1f 09be 81fc ac3c
000003e0: eec0 0bbe cf1f bbbd 41c4 29bd 1552 6dbc
000003f0: f32e 57bd 11bc 41bc 9fcb 893d dba5 32bd
-0.20020808 -0.103204794 -0.2610805 -0.18635702 -0.13433802 -0.02436325 0.07193601 -0.086452544
-0.06301771 -0.015683718 -0.23398541 -0.2258549 -0.021282945 -0.09263427 -0.15279338 -0.0487701
-0.08557591 -0.19050851 -0.046256427 -0.22913747 -0.30169824 -0.11111456 -0.2195666 -0.18077052
-0.12232847 -0.29282078 -0.31956765 -0.007905046 0.037051946 0.024281414 -0.095815465 0.017363915
0.10287332 -0.16675512 -0.17715365 0.13547927 0.013929753 -0.09637164 0.090220526 -0.0077075344
-0.047289904 0.10056156 0.103976734 0.08428206 -0.06607704 0.050439417 -0.062968865 0.12857845
-0.05763889 0.0007951169 -0.053000204 -0.13189091 -0.100456 0.035869446 -0.012899883 -0.011064608
0.111242115 -0.13492586 -0.12243039 -0.14417502 -0.15455642 -0.00027110014 -0.009650577 -0.038616557
0.087376736 -0.047779378 -0.07311073 0.10458514 -0.0051153465 -0.104456104 -0.12229323 -0.007756448
-0.067884505 0.16919708 0.13562834 -0.053660035 0.03049581 0.14836793 0.1304983 0.031409737
-0.059966728 -0.14271143 -0.14649372 -0.20856443 0.10470732 0.048002128 0.05722114 0.024548398
-0.029383115 0.120875895 -0.13072167 -0.0145083945 -0.008109619 0.014256609 -0.06096535 -0.013803832
-0.016292274 -0.14018835 0.108630516 -0.16201836 -0.06391219 -0.2063185 -0.019093493 0.076966174
-0.013847701 0.10646742 -0.008630975 -0.13209437 0.04480406 0.08331003 0.16438235 0.08946793
0.06440825 0.11137106 -0.053127035 -0.12887578 0.09355639 -0.022890437 0.051900793 0.1540768
-0.021584665 -0.08408214 -0.04326238 -0.086632624 -0.13930616 0.12941618 -0.12137551 -0.07969628
0.04466837 -0.004800216 -0.04385688 -0.09360889 -0.08062245 -0.03441509 -0.08074473 -0.17748083
-0.087486446 -0.11160739 -0.031478997 -0.27418515 -0.117339276 0.07237077 -0.098929554 0.08812734
0.13152285 -0.057895247 0.12033063 0.0425284 -0.17150584 0.05640562 0.15203293 -0.09748323
0.14199503 -0.04275438 0.06266574 0.033399638 0.09454274 -0.03516896 -0.020871721 0.08843675
0.0031235295 -0.07966731 0.12531342 -0.0553433 -0.16203962 -0.0056581832 0.02825628 -0.0079559125
-0.029229343 -0.12231151 -0.02846841 0.021318004 0.051252898 -0.047058266 0.15753901 -0.18259296
0.10182041 0.11520319 0.051545557 0.07383779 0.15757388 -0.05011852 0.094752975 -0.016165715
-0.073470026 0.096177466 0.12813583 0.009875395 -0.13765083 -0.06744358 -0.07975429 -0.05072341
0.10637248 -0.08812666 -0.028942147 0.09586622 0.061035763 0.010358136 0.045710187 0.09339864
-0.052541386 -0.1193164 0.0116847465 0.102141045 0.12491498 -0.12804525 -0.12993625 0.09118591
-0.003160775 0.012504749 -0.053980928 -0.07533318 -0.16596644 0.059582416 -0.03368858 0.03818351
0.05115643 0.056997545 -0.10138401 0.09657951 -0.037786674 -0.09710027 0.16153952 0.10743713
-0.11703108 0.15764742 0.07605279 -0.10688669 0.05485983 0.11342298 -0.09595136 0.08154888
-0.0889011 -0.13208845 -0.07982401 -0.04461013 -0.13939911 -0.04572778 -0.060158156 0.09894911
0.010724562 0.020096874 -0.055343516 -0.090265654 0.001957542 0.12608144 -0.13390821 0.021116497
-0.13647816 -0.091369264 -0.041446928 -0.014484902 -0.05253501 -0.011824624 0.06728291 -0.043615203

sequential_3/conv2d_19/Conv2D f4 [64, 3, 3, 32]
00000000: 09c2 d43b 6f90 b63d 1099 f8bc 9efe 96bb
00000010: f123 c3bc 1609 46be 6dd4 01be 38ac 90bd
00000020: e341 21bd 8df3 d63c a64b 5cbd 4b0a a7ba
00000030: 8153 10bd 88a5 723d a183 0b3e f021 41bd
00000040: 1755 07be cb4f d23d 1878 37bd bf2b 9cbc
00000050: 2f82 14be 7a1d 1d3e 2950 f8bc 3ba1 fabd
00000060: 5021 8c3d e766 ae3d e883 dcbd e099 c33c
00000070: fd05 1a3e 415a cdbd 6e80 593d af16 cfbd
00000080: fec2 27be d271 99bd df90 1fbd 6c5b 52bb
00000090: 50cc 693d 7dd3 3b3c 9ef7 0bbe 97c3 40bd
000000a0: 3155 e63b db68 b83c aab6 fa3c da64 9dbd
000000b0: 6c0c b43d 333d 76bc ab2c b4bd 15f8 edbd
000000c0: f90c 31bd 53ab 843d 382e adbd ef67 07bb
000000d0: 0b7c 65be b546 f53c fbcb 10bd d98b 14be
000000e0: f8a3 563e b8bb babc bf76 77bd dd91 053d
000000f0: 58ef e03d 5b56 b9bd 493f bf3c c3ed 323d
00000100: 90b5 2ebd 3bd3 90bb c181 a7bd 3691 ab3d
00000110: b0b8 b13c 3da0 443d 31e4 acbd 5332 4cbc
00000120: a857 0e3c 41be 36bc 8dcf 7cbd 2be5 96bd
00000130: 630d 993c e56b 0a3d c19e aebd 3b4c 0cbe
00000140: 5a4c c13d 612c 773c 7087 bcbd 36ad 37bd
00000150: 3d93 88be 20c4 0b3e fc3d 81bd 276c 06be
00000160: 5f25 c03d 3653 213d c558 a33d 502e d6bc
00000170: 8e38 f13d 4256 91bd 3f7d 0d3e 66fe 35bd
00000180: ab5c 293d 404f c53d a037 f73d aca5 acbd
00000190: 3741 7f3d 4e19 e23b bf60 b5bd 3c21 023d
000001a0: f80a 4bbb 64a8 123e 6d0e a63d 9d50 bcbd
000001b0: b238 b3bd 88dd 61bd a4b3 a83d bae7 8f3c
000001c0: c159 1cbd 5655 fe3d 606f dfbc cff3 a9bc
000001d0: 36f5 3fbd 01f8 123e 44fa cd3a ed95 dfbd
000001e0: 53a8 5b3d 9b00 ffbb 86bc 58bd 42b2 fabd
000001f0: 6bf1 a63d ad9f 2ebb 638e c4bd 18e2 8fbd
00000200: b47e dabd 2b0f 8d3c 00b3 e0bb 6fdf 633b
00000210: c94a bfbc c995 bc3d 531a 0cbe e887 91bb
00000220: e4ec b23d 11ec 5a3d 5a3a 5cbd 0d2d 4abe
00000230: 2fd1 cb3d 0548 03bd a9a3 d0bd ec94 c8bd
00000240: cafc ca3d 8fc4 363c b40f 01be 70bc 34bd
00000250: 7774 3ebe fefd b53d f8db e4bd 7a9e 82be
00000260: b6cb e73d f8cd 673c ecc0 1dbd b9a5 bbbd
00000270: 07a0 843d 6691 9d3d fa6c a6bd 1b92 7dbd
00000280: fd30 35be 8008 f4bc eb73 46bc a693 ee3d
00000290: ce58 0fbe 4ad4 d63d 9b0a e8bc e2fa 09bd
000002a0: a0fc bd3c 0681 8b3d ea69 e53c 9b8b 36be
000002b0: b3d3 7abc 2abd 8cbc 054d 1cbe 13d2 66bd
000002c0: c6bc 813d 5127 00bd f0a1 88bd d886 55bd
000002d0: c50d 4abe 532e 063d 7fa6 b5bd 2293 44be
000002e0: 649d b53d 3c70 903d 159e c93b e8df a1bc
000002f0: 0744 a33d 46d6 cfbc 0a55 aabc be24 b0bd
00000300: 3850 7abd 23f9 ae3d 08e9 d03d 42ef a8bd
00000310: 5c56 973d 8a27 273e 6527 7f3d 4c57 823d
00000320: 3d3d aabd a40b 9c3d 794e d33c 9a97 34bd
00000330: 8fd8 a3bc f338 1bbe 9df2 1a3b ad76 d5bc
00000340: e2f9 90bd 6e65 b93d 87bb 57ba c45f 47bc
00000350: a3cd 0fbe 59cb 543d faa2 02bd 5b10 c7bd
00000360: 1481 f43d 895d 013c ee0b b2bd 3a58 57bc
00000370: 889c 9cbd 0501 973d 5e99 3abe b81c f83b
00000380: b914 f3bd 1b6b 103e 3f49 733d 9e2f b0bc
00000390: 7e6d 1fbd ed82 f73d 658c 1ebb ac24 353c
000003a0: a911 d23b 622c dbbc 8204 b9bc 0062 53be
000003b0: 575f 21bd 734e 1cbe df4d 87bd 835d babd
000003c0: 13b1 703d e239 d8bb fd9a c1ba 5c80 733d
000003d0: d563 35be d0a2 d13d 78ae 42bd d24a 62be
000003e0: e4f2 c83d 2821 8fbd c9f9 db3c 800e b5bd
000003f0: cb5b f03d 793c 9a3d cc1a 93bd 1740 9dbd
0.0064928574 0.08914267 -0.030346423 -0.0046079895 -0.02382085 -0.19339404 -0.1267869 -0.07064098
-0.039369475 0.026239181 -0.05378308 -0.0012744156 -0.035235886 0.059239894 0.13624431 -0.047151506
-0.13216053 0.102691256 -0.044792265 -0.019063829 -0.14502786 0.15343276 -0.03031166 -0.122377835
0.06842291 0.08515721 -0.107673466 0.023877084 0.15041347 -0.1002698 0.053100996 -0.101117484
-0.16382977 -0.074924126 -0.03895652 -0.0032097949 0.057079613 0.011463997 -0.13668677 -0.04706153
0.0070291986 0.022510936 0.03060468 -0.076852515 0.08791432 -0.0150292395 -0.08797582 -0.116195835
-0.043225262 0.0647799 -0.08456081 -0.0020661314 -0.224106 0.029940942 -0.03535078 -0.14506473
0.20960987 -0.02279459 -0.06041598 0.03260981 0.10983151 -0.09049674 0.023345606 0.04368378
-0.04265362 -0.004419712 -0.081790455 0.08377306 0.021694511 0.048004378 -0.084419616 -0.01246317
0.008687891 -0.0111537585 -0.061721373 -0.07367929 0.018683141 0.033794302 -0.08526374 -0.13700955
0.09438391 0.015086264 -0.0920552 -0.04484292 -0.26674834 0.13649035 -0.06310651 -0.13127194
0.09382128 0.039385997 0.07975916 -0.02614513 0.11778365 -0.070965305 0.13817309 -0.044432066
0.04134814 0.09634256 0.120711565 -0.08430037 0.062318053 0.006899989 -0.088563435 0.031769976
-0.003098188 0.14322048 0.0810822 -0.09195063 -0.08751048 -0.05514291 0.08237389 0.01756655
-0.038171533 0.1241862 -0.027274787 -0.02074614 -0.04686471 0.14352418 0.0015714844 -0.10917268
0.053627323 -0.0077820546 -0.052914165 -0.12241031 0.081515156 -0.0026645467 -0.095974706 -0.07025546
-0.10668698 0.017219147 -0.006857276 0.0034770628 -0.02335109 0.09208257 -0.13681917 -0.00444125
0.087365896 0.053447787 -0.053766586 -0.19743748 0.09952008 -0.032051105 -0.10187466 -0.097940296
0.09911497 0.011155262 -0.12603647 -0.04412502 -0.18599115 0.08886336 -0.11174768 -0.25511533
0.11318152 0.014148228 -0.038514063 -0.091624685 0.06475835 0.07693748 -0.081262544 -0.061906915
-0.17694469 -0.02978921 -0.012112598 0.116492555 -0.1399872 0.1048971 -0.02832537 -0.033686526
0.02319175 0.06811719 0.028004605 -0.17826693 -0.015309262 -0.017180044 -0.15263756 -0.056352686
0.06334834 -0.031287495 -0.06671512 -0.05213055 -0.19731815 0.032759022 -0.08869647 -0.19196752
0.088679105 0.07052657 0.006152878 -0.019760087 0.079719596 -0.025370728 -0.020792503 -0.08600758
-0.06111166 0.08543613 0.10200697 -0.0824876 0.073895186 0.16323677 0.06229343 0.06364307
-0.083124615 0.07619408 0.025794255 -0.04408989 -0.020000724 -0.15158443 0.0023643144 -0.026057566
-0.07078911 0.09052549 -0.0008229543 -0.012168828 -0.14043288 0.05195174 -0.031893708 -0.097199164
0.11938682 0.007895836 -0.08693682 -0.013143593 -0.076470435 0.07373241 -0.18222567 0.007571783
-0.11869187 0.14103357 0.059396025 -0.02150708 -0.03892278 0.12085519 -0.0024192568 0.011056107
0.0064107967 -0.026754562 -0.022585157 -0.20642853 -0.039397564 -0.15264301 -0.066066496 -0.09099867
0.05876262 -0.006598697 -0.0014770922 0.059448585 -0.17713864 0.10236132 -0.047529668 -0.22098854
0.09811953 -0.06988746 0.026852505 -0.08840656 0.11736258 0.075310655 -0.071828455 -0.0767824

sequential_3/conv2d_20/Conv2D f4 [64, 3, 3, 64]
00000000: b355 a23d d2bc f03c 2f69 f93c 5a4e 2cbc
00000010: e262 9abc 3e82 0a3e 332c a6bb 1c2d c93c
00000020: cd80 ea39 b93e c63d ae3a de3c edde fdbc
00000030: ce09 093d ffda 46ba dc6b e9bd 8b27 d3bc
00000040: 4909 83bb ab12 edbc 5734 f63c c32c 7b3d
00000050: 3acd aabd 3524 e83d 5435 6fbd 1278 95bd
00000060: 3645 023d b68f f13d 4037 aebc d8d3 8c3d
00000070: 70d1 e33c 68e0 8e3c 675e 893c e9d3 5d3d
00000080: 3d74 76bc 1c25 cb3b 4606 133d 81d4 aa39
00000090: e7b6 cdbd a851 82bd c231 91bc 50ca 20bd
000000a0: 0eab 4a3d 0b0c 82bd 930a 853d d2d5 33bd
000000b0: 75b4 f23b bf00 48bc 5134 173d 8868 1ebd
000000c0: ce9a 96bc 9854 503c d854 1e3e 66f3 7e3d
000000d0: 8fcd c4bd 456e 51be 5924 1ebd fa66 383d
000000e0: e1fb dd3b 559e a33d 2237 be3a 8a16 f83d
000000f0: c8a8 733b 9fc8 1dbd 09e3 20bd 1caa 9dbc
00000100: b3c1 813d 4df3 db3d 415c 54bd 27fd 80bc
00000110: 8759 19bd c992 b03d 40ff 8c3c 62b1 a03d
00000120: 95b0 d53b 30fe db3d 0e44 62bd 449e 64bd
00000130: fb49 f03b a778 bc3d b711 923c ab2a 3abd
00000140: cdae 013d cef7 093d b562 633d 44d5 583d
00000150: 541e 58bd fb7c 07bd 9ca2 fe3b 5e1f 2bbe
00000160: 1f83 a1bc c2cc 0d3e 14c7 6fbd 3413 353c
00000170: b49e 5c3d 1ed7 873d c2da 893d 561a 203d
00000180: d485 c4bd 37dd 51bc 89a9 2b3d ccb1 c13d
00000190: 55a7 0dbe 0f41 203d b57c 0a3c f45a 3dbd
000001a0: e148 1fbd f8c7 e8bd 95fa bdbb effa 3c3d
000001b0: 689e 1c3d 2bf3 0abd 7305 0a3d daa1 9cbc
000001c0: 385f f93c 67d7 bf3d 6b92 353d ef82 0bbc
000001d0: ee1b af3b 17d2 1ebe 1a36 50bc 2b68 813d
000001e0: 08a5 e83c 4635 16bc 40b2 8c3c 5fdc b53d
000001f0: e205 903d 9ede 653d 3330 2a3d f2bf 91bd
00000200: ef92 ee3d 82d1 5a3d 5c0b d1bc 0e2c b33d
00000210: cc8b a6bd f6ce 7bbc 4dd7 31bd bed4 f03d
00000220: 309f ca3d 271b 06bc 54fa 27bd ae97 833d
00000230: 61a0 6a3d 8af4 d83d 1283 653d 2eac aabb
00000240: 0893 a33d 5b0a 33bd 7a31 aa3d b20a 6a3d
00000250: ab8d 51bd efe2 393d 125f 643d 8db0 88bd
00000260: 6712 673d d573 243e 29d4 4f3d 498b 00bd
00000270: 8d18 1ebd cb7b ea3d a160 8ebc a1b0 db3c
00000280: a3e2 e6bd eafd 543d 4e39 c43d 96cb 88bd
00000290: a014 78bd 05ab 613d bd1e bbba 2c59 3cbd
000002a0: ff80 59bd a4d6 d7bd 32ec ed3d 779a d93c
000002b0: 876c 3e3d 6280 87bd e99e 0cbd 0d0c 82bc
000002c0: 23c1 69bd 144f 8f3d d152 933d 69b9 07bd
000002d0: 9050 653d e97b f3bd 5d71 10bd c654 1e3d
000002e0: 3dae 1ebd e481 6cbd 9a0c 7e3d e303 da3c
000002f0: fe3f 153d 2fc6 70bd ca94 bb3d 1a13 73bd
00000300: e28a 34bc 6044 cc3c 8463 413d de56 813c
00000310: 5477 6fbd ffbb 143c f01d 3ebd 43f1 a83c
00000320: 0dd7 443c 0da8 673d 7cb5 6fbd ae01 013c
00000330: ed1c 003e 1a1f 533c 6869 e2bd 42d4 abbd
00000340: 9ffa 5c3d deea 4e3d 110d 043e 377c 323d
00000350: 39c4 cfbd 9785 523d ab9d 803d 2221 78bd
00000360: 28fb 4cbc a199 333d af69 c63a 5235 67bd
00000370: 9e31 07bc e984 7c3c 027c d13d f98c 943d
00000380: c798 e8bd debb 4f3d 62fb 173d 84a2 c8bc
00000390: efbd 45be 3da3 f93c cf96 633d d734 ea3c
000003a0: f77f a73c 5f43 323d 1ec9 c9b9 cfc5 3b3d
000003b0: 4ffc a13c abaa 033d 2f4a 5e3c ea87 88bd
000003c0: d41b eb3b 652e 8e3d f71a ed3d 45fd b23d
000003d0: 792e 7cbc 3a7c 34be c507 27bd 02af 7b3d
000003e0: 92f9 773d 4c98 533d c599 363d 2356 b03d
000003f0: 0f36 d23d ccb0 6ebd daae 58bc ad4a 2c3d
0.07926502 0.029386912 0.030445663 -0.010516727 -0.01884598 0.13526246 -0.005071187 0.024557643
0.00044727922 0.09679932 0.02712759 -0.030990088 0.033456616 -0.00075857335 -0.11397526 -0.025775691
-0.0039989096 -0.028939566 0.030054254 0.061321985 -0.08339925 0.11335031 -0.058400467 -0.07298292
0.031804286 0.11794989 -0.02126658 0.068763435 0.027809829 0.01744099 0.016768647 0.05415717
-0.015042362 0.006199492 0.035894655 0.00032583255 -0.100446515 -0.06363231 -0.017723922 -0.03925544
0.049479537 -0.06349953 0.064961575 -0.043905087 0.007406766 -0.012207209 0.036915127 -0.038673908
-0.018384364 0.012715481 0.15462053 0.06224384 -0.0960952 -0.2045222 -0.038608883 0.04502008
0.006774411 0.07989184 0.001451228 0.12113674 0.003717946 -0.038521405 -0.039279018 -0.019246154
0.06335773 0.10739765 -0.051845793 -0.015745712 -0.037438896 0.08621747 0.017211556 0.07846333
0.0065212944 0.10741842 -0.055240683 -0.055814996 0.007333038 0.092027 0.017830713 -0.045450848
0.031660844 0.03368359 0.055514056 0.05293776 -0.0527633 -0.033078175 0.0077708494 -0.16711184
-0.019715844 0.1384764 -0.058539465 0.011051942 0.05386229 0.06632827 0.06731178 0.039087616
-0.09595838 -0.012809089 0.04190973 0.0945774 -0.13833363 0.039124545 0.008452584 -0.046229318
-0.038887862 -0.11366266 -0.005797694 0.046137746 0.038237005 -0.03392331 0.033696603 -0.019120146
0.030440912 0.093672566 0.04432909 -0.008515104 0.0053439057 -0.1550983 -0.012708211 0.063186966
0.028399006 -0.009167975 0.01717484 0.08879923 0.07032372 0.056120507 0.041549873 -0.07116689
0.11649119 0.05342246 -0.025518112 0.08748637 -0.08132133 -0.015369168 -0.043418217 0.11759327
0.09893644 -0.008185185 -0.041010216 0.06425415 0.057281855 0.10593517 0.0560332 -0.0052085137
0.07987028 -0.043711048 0.08310218 0.057139106 -0.051160496 0.045382436 0.05575473 -0.066742994
0.056414034 0.16059811 0.05073944 -0.031382833 -0.038597632 0.11449393 -0.01738006 0.026817622
-0.11273696 0.051999964 0.095812425 -0.06679456 -0.060566545 0.055094738 -0.0014276128 -0.04598348
-0.053101536 -0.10538986 0.11617316 0.026562912 0.04649022 -0.06616284 -0.034331236 -0.015874887
-0.057068955 0.06997505 0.0719353 -0.033135805 0.055985034 -0.11888868 -0.03526436 0.038655065
-0.038740385 -0.05774106 0.062023737 0.026613181 0.03643798 -0.058782753 0.09159239 -0.05934439
-0.01101944 0.024934947 0.047214046 0.015788492 -0.05846341 0.009078025 -0.04641527 0.020622855
0.012014163 0.05655675 -0.058522686 0.007873936 0.12511034 0.012885833 -0.11055261 -0.08390094
0.05394995 0.050516956 0.1289561 0.04357549 -0.101448484 0.051396932 0.06280073 -0.060578473
-0.012511052 0.043847684 0.0015137697 -0.056447335 -0.008251576 0.015412548 0.10228731 0.07253451
-0.11357265 0.050716273 0.03710497 -0.024491556 -0.19310735 0.030473346 0.055563744 0.02858965
0.02044676 0.04352128 -0.00038487552 0.04584294 0.01977363 0.032145184 0.013567491 -0.066665486
0.007174948 0.06942443 0.11577409 0.087397136 -0.015391939 -0.17625514 -0.040778894 0.061446197
0.060540743 0.051658913 0.04458024 0.08610179 0.10264217 -0.058274075 -0.013225282 0.042063404

sequential_3/conv2d_21/Conv2D f4 [64, 3, 3, 64]
00000000: f208 6d3d 1eb1 aa3d cd3a 933b 5c45 603d
00000010: 983a afbc dedb e5bb fa48 1c3a 76b8 4c3c
00000020: b0d8 30bd 7e96 87bd 1fa8 eebd 69c2 80bd
00000030: db94 743c b283 0c3c 021a 18be 6bb0 a8bd
00000040: 88fe 293d 0ed1 d1bc ecb4 c93c fae0 a23d
00000050: 771d 953c 2a38 343d e925 08bd c34f af3d
00000060: c698 b7bd 32f5 02bc 8c50 7f3d de3e cb3d
00000070: 6c0b f2bd 873a 04bd 33ca 36bd 2e04 e53d
00000080: f737 2bbe 5d25 453d 5bd3 9f3d ba39 d1bd
00000090: 2301 693c bcb2 4cbd 8112 443d 3634 553d
000000a0: 8d3e 373d 3689 383c a5ac 3bbe 044e ba3d
000000b0: 2535 f43c 5fb5 063d 05b8 8abd 8f07 263a
000000c0: a74c 09bd 218f 37bd 78fa 5c3d e1de 213d
000000d0: b31d 3abd 9f86 31bd 517e 9fbd ff59 bd3d
000000e0: 2eb1 a73d 8baf 6c3c 313e 983d e3ee 463d
000000f0: efb1 9cbd 81a3 93bc 01a5 3d3c fd3f 253d
00000100: ab5d c23c b2fb 1d3d 99e5 6c3d ccdf 5abd
00000110: a0fd 6e3c b5df 923d 3898 863d 845e 40bd
00000120: 9763 283b 30cf 58bd 23d8 06bc 108a 5cbc
00000130: 100b d73c c5df eabc faa3 c1bd 4cd4 cebd
00000140: a435 17bd 041b 093b 99f6 653d b8d6 853d
00000150: cbbf 04bd ae31 81bc 5a90 00bd 4486 5f3c
00000160: 4ab6 d8bd c916 5ebd 49d8 a93c 6b86 553b
00000170: 1b4c 20be e929 b43d 7944 2ebe 65ca d43d
00000180: d868 06be 2017 2dbc da96 793b bc3e f2bd
00000190: 705a 953d 8d20 b1bc 5f8a 5f3d 4f94 5a3d
000001a0: beab 86bc 9b42 bdbd 02dd efbd 2457 293e
000001b0: f2ec 603d 964e 89bd 9c2e 9fbd 35ae c53c
000001c0: 4486 abbd c4c6 2a3d 0618 433c d08e cd3d
000001d0: 1ff9 75bd 92f4 67bd 6e16 50bd 6fe8 6e3d
000001e0: a7e5 48bc 5721 833c 60b6 893d 173e 09bb
000001f0: 36d1 6cbd 0796 e8bd 44a2 713d a77b 81bc
00000200: 182b 253d a3c1 a13d 16ee bc3b 3a86 353d
00000210: 173e 633d 5a17 963d 0810 193d 3c57 8dbc
00000220: 3d1c 4f3d 6899 9cbd d2e2 93bd 0eb6 dfbc
00000230: 6f0a 713d 62d8 8abd 10c9 78bb 792d 10bd
00000240: d69c 70bb 0ca9 ff3c ab15 543c 955b ad3d
00000250: 881c 413d 8878 0d3d 17c0 783b f941 f23d
00000260: 785d a2bd 34f9 af3c 6818 8abc ce92 5bbd
00000270: 5222 13be 7ee3 713d 97a2 91be f97f b13c
00000280: 4384 9abc 8a5a b13d 02bb 9b3d c5aa 5f3b
00000290: 5d8d e7bb 47cc 84bb 190b f4bc 49f6 763d
000002a0: d86b e2bc 51bb 11bd 95bf babd 2716 5f3e
000002b0: bbbc cd3c 3198 3bbd 4d5e a23d e15b cebc
000002c0: 46f2 0ebc 3cab 32bd 46ce 5abb 8ff9 b63d
000002d0: 9406 53bc 475a 7a3d 95ff d63d b3a7 48bb
000002e0: 50b7 263e 5844 0e3d a03d 2bbd 1812 3f3c
000002f0: 72ae b3bb 8271 7bbc b257 2a3d f666 93bc
00000300: 6998 733d 3bc8 df3d 0123 593c 1ab8 6cbc
00000310: 58a6 c93c db61 013d f06c 8fbc 458b 5c3d
00000320: a348 f2bd 1390 143b d7ce f53c e5ba c63c
00000330: e154 ccbc 5e24 47bd fa60 82bd 4a18 dbbd
00000340: 4817 ad3d 9fe5 85bd 1e57 5c3d 3888 073c
00000350: 9f8d ce3c 893d b03d 9581 9dbc 4aba e73d
00000360: b4e9 03be e329 963c 3c70 8bbd 3db5 71bd
00000370: 2cc4 96bd 915f c3bc abce c3bd 3493 c93d
00000380: d463 3cbd 5f94 bd3d dbdc 2fbc 9776 fbbc
00000390: 208b 2dbc 943c 1abd 24d9 60bd c2dc 33bc
000003a0: 07c6 ae3c e059 aebd b512 a73c 1180 563d
000003b0: f5e3 b33d f965 873d d506 9fbd d17e 7d3d
000003c0: bc61 103c 41af 84bd e7f9 643c 9f57 933d
000003d0: f6e8 193d c316 84bc e5f4 27bd 03e8 893c
000003e0: 2979 593c cdcf 8f3d 715d 91bd 9a4e bf3d
000003f0: d331 073d dc53 9fbc b1b5 e83c 341c 453d
0.05786986 0.08334564 0.0044930936 0.054753646 -0.021390244 -0.0070147356 0.0005961802 0.012495151
-0.0431754 -0.06620501 -0.1165316 -0.06287081 0.014928068 0.0085763205 -0.14853671 -0.08236774
0.041502506 -0.02561238 0.024622403 0.07953067 0.018202526 0.043998875 -0.03323928 0.08560135
-0.08964686 -0.007993029 0.062332675 0.099241 -0.11818585 -0.03228238 -0.044626426 0.11182438
-0.16720568 0.048131336 0.07803985 -0.102160886 0.014221462 -0.049975142 0.04786921 0.052051745
0.044737387 0.011263182 -0.18327577 0.090969115 0.029810498 0.032887813 -0.0677338 0.0006333524
-0.033520367 -0.044814233 0.053949803 0.039519195 -0.04543848 -0.043341275 -0.07787765 0.09245681
0.08188091 0.01444615 0.07433737 0.048567664 -0.07651126 -0.0180223 0.0115749845 0.040344227
0.023726305 0.038570113 0.05783615 -0.053436086 0.014586836 0.07171575 0.06572002 -0.046965137
0.0025694126 -0.052931964 -0.008230242 -0.013460651 0.026250392 -0.028671155 -0.09455104 -0.10099086
-0.03691639 0.0020920644 0.056143377 0.06535095 -0.03240947 -0.01577076 -0.031387664 0.013642851
-0.10581644 -0.05422095 0.020733016 0.003258134 -0.15654032 0.08797056 -0.17018308 0.10390166
-0.13125932 -0.010564595 0.00380843 -0.11828372 0.0729264 -0.021621967 0.05457532 0.053364094
-0.016439315 -0.092412196 -0.11712076 0.16537148 0.05491347 -0.06704442 -0.07772562 0.02413092
-0.083752185 0.041693464 0.011907583 0.10037005 -0.060052034 -0.056629725 -0.05080264 0.058327135
-0.012261785 0.016007109 0.067242384 -0.002094155 -0.057816707 -0.113567404 0.05899264 -0.015806032
0.0403243 0.078982614 0.0057656867 0.04431746 0.055479135 0.07328673 0.037368804 -0.01725351
0.05056404 -0.076464474 -0.07220997 -0.02730849 0.05884784 -0.06779553 -0.003796164 -0.035199616
-0.0036714575 0.031208538 0.012944619 0.084647335 0.04714635 0.034538776 0.0037956291 0.118289895
-0.07927984 0.021481134 -0.016857341 -0.0536068 -0.14368561 0.059054844 -0.2844436 0.021667467
-0.018861895 0.08659847 0.07604028 0.0034128886 -0.0070664124 -0.004052672 -0.029790448 0.06029347
-0.027639315 -0.03557903 -0.091185726 0.21785794 0.025114408 -0.045799438 0.07928143 -0.025190296
-0.008724755 -0.043620333 -0.0033387109 0.08934318 -0.012879986 0.06112125 0.10497967 -0.0030617535
0.16280866 0.034733146 -0.041806817 0.011662029 -0.005483442 -0.015346887 0.04158754 -0.017993432
0.05947152 0.10926863 0.0132529745 -0.01444819 0.024615452 0.031587463 -0.017508 0.053843755
-0.118302606 0.0022668883 0.030005855 0.02425904 -0.024942817 -0.048618667 -0.06366153 -0.10697992
0.08451706 -0.065379374 0.05379402 0.008272223 0.025214015 0.08605487 -0.019226829 0.11314829
-0.1288212 0.01833052 -0.068085164 -0.059010733 -0.073616356 -0.02384928 -0.09560903 0.0984253
-0.04599364 0.09256815 -0.010733808 -0.030696196 -0.010592252 -0.037655428 -0.05489458 -0.010977926
0.021334661 -0.08513236 0.020394662 0.052368227 0.08783714 0.066112466 -0.07764975 0.06188852
0.008812364 -0.064787395 0.013975597 0.07194447 0.037575684 -0.016124135 -0.041005034 0.016834265
0.013273516 0.07022057 -0.07097901 0.09341164 0.0330065 -0.019449167 0.02840695 0.0481226

sequential_3/conv2d_22/Conv2D f4 [64, 3, 3, 64]
00000000: 6c59 073e 054e 0cbe 4606 043e 998a 6f3d
00000010: 7e80 afbd 0e0a a13d dc30 3cbd 4f8d 1b3d
00000020: 6feb 5b3d 215d e43b 8fc8 88bd 5602 363d
00000030: 172d 533d cd52 a33d e3e5 8cbd de20 35bd
00000040: 7ad7 e63d 3719 90bd d24f 633c d817 01bd
00000050: ac17 33bd 6d73 db3b 57fd 18bd 0fe2 d13d
00000060: 73d3 8e3e 85d7 a13d 590d 34bd 7f40 a5bd
00000070: 9640 293d 0caf f1bb f2c9 d3bd b4f5 963d
00000080: fbc9 95bb d07f 65bd 03ea 96bd 42a4 cabd
00000090: c559 99bd f2ec 1a3d acda 40bd c257 be3c
000000a0: 875e 4a3d 6842 19be a8d7 0abd ef14 e5bc
000000b0: bd3e 88bd 3780 56bd bf22 2abd 8c8f 81bd
000000c0: b4fe 2a3d 06b7 f83c 02fa 1ebd 46db 633c
000000d0: 5c88 c5bb 4069 31bd de41 a5bd c393 2fbd
000000e0: 296d 3ebd e121 afbd 5d0f 493d 48d9 6a3c
000000f0: 9de6 5bbd 14d7 b33d 1b62 1cbd 7d8b 983d
00000100: ba64 da3b 2035 8ebd cf01 e33d d145 8bbc
00000110: f2bf 51bd f4a3 de3d c423 a4bd f6ef bbbc
00000120: 8dd5 c6bd 88ad 2c3d 1a20 463c eb32 93bc
00000130: 203b 23bd c6e4 403d 34ac 28be e906 e33c
00000140: dbf3 e93d 9997 6d3d 6342 cbbb d84e 813d
00000150: c1b9 713c 8d4d d2bc addd 613d e84b 51bc
00000160: a238 943d 78a4 5a3d 6c1b a2bd 41d7 febc
00000170: a717 003d bca3 273d 97b9 f3bd 8a81 a63d
00000180: 7ef5 9cbd 0a12 bcbd 5df4 1fbb 0399 a6bd
00000190: bf23 e3bc 885e 6f3e cebb 0e3c 8132 74bd
000001a0: 1ea6 013c e615 68be 86bb ca3c ffc0 f3bc
000001b0: ee5c 8c3c 05a4 1d3a 0095 12be 3c10 51bd
000001c0: 442b 303d ac82 01bd f966 57bd 7468 de3c
000001d0: ebde ccbc b487 2f3d 856f 99bd 0e8d 21bd
000001e0: 23cc 8fbd ac09 a3bd a0db 64bc d069 bfbc
000001f0: 76bb 9b3d bf09 293d b177 18bc c468 c73c
00000200: 9c57 e03d d965 1cbe 68b8 393d 5a89 543c
00000210: 8551 923c 24c4 f6bc ff90 003e 42f8 023c
00000220: d14a 0f3c 2354 bb3a d932 fb3c d608 c4bc
00000230: ed5f 993d c8e9 503d 922e c2bd e98f debc
00000240: ed36 5f3e ddd4 51bd 6a40 1f3d aa02 703c
00000250: 6df3 5c3c 1533 7dbd b674 093e e2de b3bc
00000260: 7372 0dbc 94b2 9fbc 9d9a 193d 0c65 983d
00000270: 0ddc 65bd b86e 2a3c 8cc0 90bc 46f1 c03c
00000280: 29a7 3fbd 725d 523d 8c4a 7e3c a8cc 97bc
00000290: 8738 c8bb 9ea7 473e bb93 523c 62ae b0bd
000002a0: 859c 26bc 2e26 84be f240 863d 1907 2e3e
000002b0: 5cd9 ee3d 562d 4bbd dcc1 c2bd 16bc 8a3d
000002c0: ada2 47bc 3873 0dbd 91a8 2abc 19f1 c23c
000002d0: 522f 9b3c a9e6 a7bd c6ce 2cbd 7d36 c4bc
000002e0: 7fbe d1bb 7be8 583c 4506 9e3b 813c 31bd
000002f0: 0854 b33d 5478 163e d484 09bd 5c4e f73d
00000300: 42cf 5c3d 45ca 95bc 39de 053d dcb6 24bd
00000310: d836 4ebe ec3d ddbb 068a 48be 1b4b 49bd
00000320: 160e f73c f33c 2ebd 2de5 2bbd 8eb6 043c
00000330: fd3e d03c c6e6 2e3d 3943 01be 6b70 22bc
00000340: 5070 1e3d 5489 38bd ae25 4a3d 0767 57bd
00000350: 5206 623b eb53 30bd 5f71 8dbd 2ef7 993d
00000360: 7fee dc3d fe2a f53c 288b 223d 8cb9 90bd
00000370: c2f6 e33c f43c b73c 4002 d2bd 679a 88bd
00000380: 6ad5 413c a067 90bd 98c9 85bd 1e59 8dbc
00000390: 188e d4bd cca3 0bbe cec0 58bd b4dd b33c
000003a0: ea10 ab3c 4f88 733d 5d1c eebd d494 313d
000003b0: f4a2 43be a1cf 843c e94c 39bb 0f88 f6bd
000003c0: b3de 57bc fb96 34bc 628b 90bd dffc 7abb
000003d0: 7822 113d f138 ec3b d10f 50bc 7dc7 253c
000003e0: 01a8 edbd b8d8 8bbd 330b 043d 4a24 42bb
000003f0: 8af8 d4bc 37e3 a13c 0349 133d 2eda ccbc
0.13217705 -0.13701637 0.12893018 0.058481786 -0.0856943 0.07863246 -0.045945033 0.03797656
0.053691324 0.0069691096 -0.066788785 0.04443582 0.051556673 0.07974777 -0.06879785 -0.044220798
0.11271568 -0.07036059 0.013874011 -0.03151688 -0.043723747 0.0066971094 -0.03735098 0.102481954
0.27895698 0.07902435 -0.04395804 -0.08068942 0.04132136 -0.0073756035 -0.103412524 0.07371083
-0.004571197 -0.056030095 -0.07368853 -0.09894611 -0.07487825 0.037823625 -0.04708354 0.023235206
0.049406555 -0.14966738 -0.033897072 -0.027964083 -0.066525914 -0.05236837 -0.041537043 -0.063262075
0.04174681 0.03036071 -0.038812645 0.013907259 -0.006028218 -0.043313265 -0.08069204 -0.042865526
-0.046490822 -0.08551384 0.049086917 0.01433403 -0.053686727 0.08781257 -0.0381795 0.0744848
0.0066648396 -0.069437265 0.11084329 -0.017001064 -0.051208444 0.10871115 -0.08014634 -0.02294157
-0.097087 0.04215768 0.012092615 -0.017968616 -0.039851308 0.047093175 -0.1647194 0.027713256
0.11423465 0.058005903 -0.0062029823 0.063138664 0.01475376 -0.025671745 0.055143047 -0.012774445
0.07237364 0.053379506 -0.079153866 -0.0311085 0.031272557 0.040927634 -0.11900633 0.08130176
-0.076640114 -0.09183128 -0.0024407126 -0.081346534 -0.027727006 0.23375905 0.008711768 -0.059618477
0.007913141 -0.22664604 0.024747621 -0.029755114 0.017134156 0.00060135155 -0.14314651 -0.051040873
0.04301001 -0.03161876 -0.052588437 0.027149417 -0.02500864 0.042854026 -0.07491974 -0.03944116
-0.07021358 -0.07960829 -0.013968378 -0.023365885 0.07604115 0.04126906 -0.00930588 0.024341948
0.1095421 -0.15273227 0.04534188 0.0129722 0.017861137 -0.030122824 0.12555312 0.00799376
0.008745865 0.0014292042 0.030663894 -0.023929995 0.074889995 0.0510042 -0.09481539 -0.027168231
0.21798296 -0.051228393 0.03887979 0.014649073 0.013485772 -0.061816294 0.13423428 -0.021956865
-0.008633244 -0.019494332 0.037500966 0.07441148 -0.05611806 0.010402374 -0.017669939 0.023552548
-0.046790276 0.051358648 0.015520703 -0.018530205 -0.006110254 0.19497535 0.0128526045 -0.08627011
-0.010169153 -0.2581038 0.06555356 0.16994895 0.11662552 -0.049603783 -0.09509632 0.06774156
-0.012184781 -0.03453371 -0.010416166 0.023796605 0.018943463 -0.08198292 -0.042189382 -0.023951763
-0.0064008827 0.013239021 0.0048225247 -0.04327059 0.08756262 0.14694339 -0.03357394 0.12075493
0.053908594 -0.018284926 0.03268263 -0.04021345 -0.20138109 -0.0067517664 -0.19583902 -0.04914389
0.030158084 -0.042538594 -0.041966606 0.008100165 0.02542066 0.04270055 -0.126233 -0.009914498
0.03868133 -0.04505284 0.04935234 -0.05258849 0.003448863 -0.04304878 -0.069063894 0.07517849
0.10787677 0.029927727 0.03968349 -0.0706664 0.027827624 0.022367932 -0.102543354 -0.06670075
0.011830667 -0.07051015 -0.065325916 -0.017254408 -0.10378665 -0.13636702 -0.052918248 0.021956302
0.020882089 0.059456166 -0.116265036 0.043354824 -0.1910513 0.016212286 -0.0028274602 -0.1203767
-0.013175654 -0.011022325 -0.07057835 -0.0038297696 0.035433263 0.0072089364 -0.012699083 0.0101183625
-0.1160431 -0.06828445 0.032237243 -0.002962368 -0.025997419 0.019761665 0.0359583 -0.02500638

sequential_3/conv2d_23/Conv2D f4 [64, 3, 3, 64]
00000000: cd93 e6bc 4f28 85bd f5aa 6d3b d7b8 71bc
00000010: bcfe 443d 4c28 723d 21e0 86bd ff3d c03c
00000020: 1548 1dbd 6f6a 9dbd e646 0abc 9a22 743d
00000030: e668 9bbd b4ae 16bd 0224 a7bd 9edc c3bc
00000040: 2a84 84bd 3107 36bd f63b 103d c1ce fdbc
00000050: f2af a9bd 2558 e83c aabc c1bd 31df 0d3d
00000060: 3fdc 043d cccb d7bc cd8e 9dbd 00b1 a63c
00000070: e258 5dbd 40bd 123d 0b0c bc3c 56d4 e53b
00000080: d11f 23bd a4cd ab3c b55c bfbd 9c5a fa3c
00000090: 45f0 90bc 1d7f 85bd dc6c 673d 45e2 89bd
000000a0: 09bb fdba bae5 b2bd 2cd5 98bc 0746 193d
000000b0: 8a9a 2bbd 2ea5 10bd c07a 833d f958 b2bd
000000c0: a512 82bb 59cb ed3c bf74 023c dc20 6cbd
000000d0: 134d 663c 9c1b 9cbd cba3 593c 47b1 51bd
000000e0: 7c51 1abd 590b 043d a05d 853d 8c76 fcbc
000000f0: 423a acbd e629 8b3d 3948 c6bd c273 0d3d
00000100: bf1e 8cbd a4ef e23c 552d 833d 70b6 0d3d
00000110: 36a3 b7bd 8e3b 183c 6117 99bc ed97 7f3c
00000120: a5b2 873d 1ab5 303b 0b4c 873c 4244 3fbd
00000130: 7005 eebd 5fc0 a33c ba91 033c 4b24 ef3c
00000140: 582b bc3a 1ce5 fdbb c37b 54bd 21eb 0bbc
00000150: ce20 d4bd cdc0 a5bd 9e87 843c 7839 40bd
00000160: 9923 ba3c 2fc5 1f3d 4124 18bd 3c77 c9bc
00000170: 956b cc3c 58ac 1fbd 41ba 27bd b1d3 41bc
00000180: bf72 95bd 4003 8e3a d6ca a4bc 92a8 833c
00000190: fd61 913d f6b2 203d aec7 68bc 5bec 2cbc
000001a0: e0cc 9fbd f407 87bb 5ee9 90bd b0c3 f4bb
000001b0: 9513 7a3c a84b 533d e8c4 1d3c 1934 3ebd
000001c0: c870 a9bd 4ca9 5d3d cd49 fd3c 0030 3b3a
000001d0: 8e4c 3b3c 2c86 2a3d 97a3 3f3d bc4a 6fbd
000001e0: f2e2 5bbd 0f40 be3c 540f 29bd cfab 5cba
000001f0: 8a48 c83c 27a9 44bc ee1e f3bb b596 57bb
00000200: d1bd e53b 97c6 193d 29ff 413d bb7e 8d3d
00000210: 89f3 94bd dbfb 5d3d ae87 36bd 8891 d0bc
00000220: f5cc 7d3d 70e6 8fbc c9cf 15bd 498d 9fbd
00000230: 9e39 eabd 44f6 8ebc e52d 06bd 54bb fe3c
00000240: 16a3 aebc fe14 973b 0bce 46bc c703 123b
00000250: 853d 08bd 5a1f 9e3c fc4b e3bc 2292 933d
00000260: 3a77 c2bc 2387 18bd 965d 23bc 0d51 87bc
00000270: ab6f 48bc a8a6 c3bd ed24 c7bc 5f0e c83c
00000280: 1e68 22bc a431 23bd a3ca 5fbd 87c1 6fbd
00000290: 4134 03bd 2ba6 cebc e4ad d03c 749e 65bd
000002a0: ab42 783b a554 97bd 409a 913c 730b 71bd
000002b0: e90d bdbd 6f84 04bd e4f9 ae3c ec10 2ebd
000002c0: 949d f63b 879c 223d d43e 79bd 0010 5838
000002d0: 02aa f13b 7ed5 0ebd a096 6ebd 6310 df3c
000002e0: 9e52 3c3c 25b6 68bd 2af9 b53c 7cfe 253d
000002f0: db79 cfbd 8792 3b3d 7ac5 03bd 2c12 683c
00000300: c245 0d3d 4d4c 0c37 c893 3cbc 0306 2abd
00000310: 8b26 25bd 32d9 363d 8d16 0f3d 1425 3dbd
00000320: fc0f 713c 0a67 69bd 6f42 86bc 666c a63b
00000330: 693e ccbd 2a6a 92bd 25c8 fc3c b9f0 c8bb
00000340: 9d80 f83b 7ab2 8f3d 30d7 e6bc 1221 6bbd
00000350: b448 3cbd 92ef 95bd 1c9b a4bd 3ac3 b9ba
00000360: 3ec7 afbb 27a8 80bd f3a8 f03c e3ee e53c
00000370: ced2 b13c c708 e53c 14e0 123c 974f 473d
00000380: b221 85bd 4ca2 093d 545f e1bd 4786 20bd
00000390: 00b6 233d 2646 3f3d 16cc e8bc 036e 99bd
000003a0: dbf0 4b3d 1e63 90bd d26c 7e3c c950 80bc
000003b0: fa22 7cbd 22a6 623d 113f 29bd 0563 203d
000003c0: ae77 afbd 0c31 853d c8e9 98bd 3071 bebb
000003d0: b1df 39bd 68c8 6bbc 88fb f9bc e5a8 683d
000003e0: 10d0 76bd d807 173d 970a 943c c0ec 7abd
000003f0: 18bb 123c 46b5 f63c e995 d9bd ab5f 84bc
-0.028146649 -0.06501829 0.0036265228 -0.014753542 0.048094496 0.05912046 -0.06585718 0.023467062
-0.03839882 -0.07686316 -0.008439755 0.05960331 -0.07588367 -0.036787704 -0.08161165 -0.02390891
-0.06470521 -0.044440452 0.035213433 -0.030982377 -0.08285512 0.028362343 -0.09459813 0.03463668
0.032436606 -0.026342295 -0.07693253 0.020348072 -0.054039843 0.035825014 0.022954961 0.007013838
-0.039825264 0.02097208 -0.09343854 0.030560784 -0.017692694 -0.065183856 0.0565003 -0.067326106
-0.0019358109 -0.08735223 -0.018656336 0.0374203 -0.041895427 -0.035313778 0.06419897 -0.087083764
-0.0039695078 0.029027628 0.007962405 -0.057648525 0.014056462 -0.076224536 0.01328368 -0.051194455
-0.037675366 0.032237384 0.06511998 -0.030818246 -0.08409549 0.06795101 -0.09681744 0.034534223
-0.06841802 0.02770216 0.06405131 0.034597814 -0.08966677 0.009291543 -0.018687906 0.015600187
0.066258706 0.0026963414 0.016515752 -0.046695955 -0.11622131 0.01998919 0.008030349 0.02919211
0.0014356179 -0.007748259 -0.05187584 -0.008539946 -0.103578195 -0.080934145 0.016177949 -0.046929806
0.022722052 0.03900641 -0.03714395 -0.024592988 0.024953643 -0.03898272 -0.04094911 -0.011830256
-0.07297277 0.0010834709 -0.020116251 0.016071592 0.07098768 0.03923317 -0.014207764 -0.010554398
-0.07802749 -0.004120821 -0.07075761 -0.007469617 0.015263458 0.051585823 0.009629466 -0.046436403
-0.082734644 0.054116532 0.03091898 0.00071406364 0.011431826 0.041631863 0.04678687 -0.05842088
-0.05368323 0.023223905 -0.041274384 -0.00084179355 0.024448652 -0.01200322 -0.0074194586 -0.0032896225
0.0070111533 0.037542906 0.04736248 0.069089375 -0.07273013 0.054195266 -0.044562988 -0.02546002
0.06196304 -0.017565936 -0.036575112 -0.0779062 -0.11436771 -0.017451413 -0.032758612 0.031095184
-0.021318 0.0046106568 -0.012134085 0.0022280084 -0.033261795 0.019302059 -0.027746193 0.07205607
-0.023738492 -0.03723825 -0.009971043 -0.01651814 -0.012233655 -0.095532715 -0.0243096 0.024420915
-0.009912519 -0.039842263 -0.05463661 -0.05853417 -0.032032255 -0.02522572 0.025473543 -0.056059316
0.0037881534 -0.073891915 0.017773747 -0.05884881 -0.09231169 -0.03235286 0.021359392 -0.042496607
0.007526109 0.039700057 -0.060850933 5.1513314e-05 0.007375003 -0.03487157 -0.058249116 0.027229493
0.011494307 -0.05681433 0.022213537 0.0405259 -0.10130664 0.045794036 -0.03217075 0.014164489
0.034490354 8.362415e-06 -0.011509843 -0.04150964 -0.04031996 0.044640727 0.034933615 -0.04617794
0.014713284 -0.05698303 -0.0163891 0.00507884 -0.09972841 -0.071491554 0.030857155 -0.006132212
0.0075836913 0.070164636 -0.028178781 -0.057404585 -0.045967773 -0.07321085 -0.08037397 -0.0014172562
-0.0053643277 -0.062820725 0.029377436 0.028068012 0.021706965 0.027958287 0.008964557 0.048659887
-0.065005675 0.033602044 -0.110045105 -0.039190557 0.03996849 0.04669776 -0.028417628 -0.07491686
0.049790245 -0.07050155 0.0155288745 -0.015663521 -0.061556794 0.055334218 -0.04131991 0.039156932
-0.08567749 0.065034956 -0.07466465 -0.005811833 -0.045379344 -0.014391042 -0.030515447 0.056801695
-0.060257018 0.036872715 0.018071456 -0.06126094 0.008955739 0.030115735 -0.10624296 -0.0161589

sequential_3/dense_7/BiasAdd/ReadVariableOp f4 [4]
00000000: 4418 21bd 354f acbd 1d86 a43c c19c f23d
-0.039329782 -0.08413545 0.020083481 0.11846305

sequential_3/dense_6/BiasAdd/ReadVariableOp f4 [64]
00000000: 32f3 e6bc a15a 85bc cc67 a9bc ee4e c3bc
00000010: a147 1fbd 61ca af3d 8dce bc3d 083d 2d3d
00000020: 5bd5 323e d57f 573e c3ee 64bd e5b8 d0bc
00000030: e999 6ebc 083f 67bc 86e0 b9bc 46fb c4bb
00000040: fe03 673d 8fd1 b7bc 4020 fdbd 0353 9abd
00000050: 87fd e63a c0c1 0cbd 23d3 af3d 2c60 cbbc
00000060: 60e9 4e3d 0000 0000 0061 6abc 2d07 0f3d
00000070: 2dc2 9dbd e346 95bc 636d 1c3d b832 85bd
00000080: d2b5 08bc a279 043e 1375 bebc 3aa9 87bd
00000090: e49b d6bc 8d37 723d 0164 27bc aa14 0a3d
000000a0: 40e9 5b3d d62a 093e b48e 98bd 9010 b6bd
000000b0: 5981 5cbd 1090 ad3a 5557 863d f3a2 063e
000000c0: 4588 86bd 64a3 e23d f743 8ebc ccf0 8d3d
000000d0: d0a7 62bc 7ad7 07bc 3066 ee3d e239 acbc
000000e0: 5757 173d 3279 053e c32f fbbc 385f 073d
000000f0: f4ab 73bb e49e eabc 6726 e0bb 71ef 9ebc
-0.028192136 -0.016278567 -0.020679377 -0.023841348 -0.03888667 0.085835226 0.09219084 0.042294532
0.17464201 0.21044858 -0.055891763 -0.02547879 -0.014563062 -0.014114149 -0.022690069 -0.0060113994
0.05640029 -0.022438793 -0.12359667 -0.075353645 0.0017623164 -0.034364462 0.08585193 -0.024826132
0.050515532 0.0 -0.014305353 0.034918953 -0.07703052 -0.018222278 0.038190257 -0.065038145
-0.008344131 0.12937024 -0.023249185 -0.06624074 -0.026197381 0.05913501 -0.010216714 0.033711113
0.05368924 0.13395247 -0.074490935 -0.08889878 -0.053834293 0.0013241787 0.06559626 0.13148098
-0.0656896 0.110663205 -0.017366393 0.06930694 -0.013833955 -0.00829112 0.116405845 -0.021023694
0.03694853 0.13034514 -0.030662423 0.033049792 -0.003718135 -0.028640218 -0.0068405154 -0.019401284
